log/BasicRNN/BasicRNN.pth (torch, 179980 bytes, 8 tensors)

initial_h f4 [12, 100]
0.008388143 -0.01380868 -0.36483094 0.05814239 -0.34626135 -0.18768585 0.13367511 -0.03359734
0.38337228 -0.10823242 -0.086443536 -0.3803934 -0.19516169 -0.0663102 0.028781971 -0.24964055
0.74176294 -0.5341858 -0.07483193 0.028868405 -0.031116493 -0.041893564 -0.16360414 0.22316852
0.16399099 -0.08079024 0.17797644 -0.12689626 0.24520908 0.29108208 -0.5099993 -0.14594601
-0.028610114 -0.19878852 -0.1835726 -0.32706767 0.037017774 -0.008461158 0.27227074 0.37877503
0.063374825 -0.10995501 -0.027062982 -0.2503736 -0.058746837 -0.28576055 -0.009789912 -0.045342192
-0.09055587 0.08330816 -0.036345467 0.2597515 -0.1386305 -0.06664354 -0.12788843 -0.12545511
-0.17256281 0.024649713 -0.13230477 0.05909257 0.009336709 -0.15938047 -0.123526335 -0.14834285
-0.16690114 0.0130713405 -0.1021621 -0.06365423 -0.004349321 -0.23663352 -0.01962662 0.25126627
0.15922852 -0.07609871 -0.010152721 -0.10101578 0.24861233 -0.4046215 -0.07949274 -0.201502
-0.07224158 0.07367997 0.15252623 -0.35178643 -0.20915028 0.08621582 0.111824185 0.010223337
-0.20735085 0.25685298 0.19076672 -0.0053608255 0.36179808 0.22100048 0.041497584 -0.011412654
-0.4835142 0.43314588 0.37246516 0.082324326 -0.19276127 -0.3569905 -0.04150677 -0.45990607
-0.056975614 0.086463615 0.22426806 -0.07423063 -0.06528288 0.0018490261 0.2382084 0.26580474
0.021230208 0.49665037 0.21635227 0.12463251 0.39900702 0.1044081 -0.27402806 0.3331111
-0.027615033 -0.04977766 0.14395896 0.08883257 -0.2499606 -0.062047444 -0.15803461 -0.35967633
-0.198236 0.19882971 -0.24562041 0.2916649 0.36865845 -0.31498697 0.37398592 0.043007746
0.019297171 0.1680998 0.003774315 0.18196538 0.22072135 0.09689031 0.08466328 -0.22526288
-0.32979345 -0.40449858 -0.60673875 -0.30790743 -0.086858 0.27411944 -0.22572838 -0.016541123
0.55644757 0.042217385 0.053325415 -0.09372249 -0.25371578 0.011595913 -0.377666 0.11289015
-0.20441936 -0.17576456 0.3996278 -0.26469395 -0.03109454 0.20501892 -0.37238786 -0.09873003
0.34889337 0.05264261 0.005401793 -0.03572274 -0.4384607 -0.0934291 0.13300873 -0.11019927
-0.069355726 -0.13968325 0.039609265 0.23573926 -0.46715814 0.1393165 0.5544192 0.18753077
-0.07828452 0.14292623 0.60934335 -0.42505777 0.18144515 0.31855574 0.48482594 -0.0017513377
-0.46791264 0.039359484 0.2616049 -0.25934878 -0.25416934 0.20786682 -0.09302342 -0.003666722
0.14307484 -0.087519184 0.07762624 -0.08943358 -0.05949884 0.024499374 -0.098236494 -0.18319948
0.068121545 0.26535064 0.24969107 -0.21821082 0.050139308 0.36838415 0.5988368 0.0114439195
0.43140218 0.16785409 0.022318622 -0.25260597 0.44552463 0.26213935 0.4249978 -0.014131194
-0.07501779 -0.0146017345 0.012281612 -0.11428064 -0.012094563 -0.3254914 -0.02050647 -0.09831019
0.4539695 -0.41897088 0.25611433 0.37502396 -0.10018966 -0.25824866 -0.19062021 -0.02588872
0.14722721 -0.39907888 0.30883944 -0.16339473 -0.052861292 -0.08270506 -0.14865333 -0.302645
-0.36208874 0.012692789 -0.16815312 -0.07440775 0.3503767 -0.18712291 0.20705354 -0.0045206742
00000000: 6c6e 093c cd3d 62bc 1fcb babe b726 6e3d
00000010: 2b49 b1be b830 40be 21e2 083e 5d9d 09bd
00000020: 5f49 c43e f6a8 ddbd 4f09 b1bd ecc2 c2be
00000030: 77d8 47be a4cd 87bd 2bc8 eb3c c6a1 7fbe
00000040: 2de4 3d3f 67c0 08bf 7c41 99bd 6f7d ec3c
00000050: 04e8 febc 9698 2bbd d887 27be 4a86 643e
00000060: 41ed 273e 5a75 a5bd 753f 363e 18f1 01be
00000070: 1718 7b3e b608 953e 508f 02bf df72 15be
00000080: c25f eabc 388f 4bbe 75fa 3bbe 6a75 a7be
00000090: f39f 173d aba0 0abc 1267 8b3e cdee c13e
000000a0: a9ca 813d 1830 e1bd 30b3 ddbc f830 80be
000000b0: 86a0 70bd 354f 92be de65 20bc bcb8 39bd
000000c0: 5b75 b9bd 789d aa3d fcde 14bd 26fe 843e
000000d0: 27f5 0dbe 697c 88bd 2ff5 02be 4e77 00be
000000e0: 4eb4 30be 32ee c93c e77a 07be 0d0b 723d
000000f0: fff8 183c a234 23be 60fb fcbd 30e7 17be
00000100: 22e8 2abe 2d29 563c 5d3a d1bd 265d 82bd
00000110: c084 8ebb 0f50 72be 01c8 a0bc f9a5 803e
00000120: cd0c 233e a4d9 9bbd 9957 26bc 5ce1 cebd
00000130: 3b94 7e3e 8d2a cfbe 17cd a2bd 8a56 4ebe
00000140: 65f3 93bd 86e5 963d d62f 1c3e 5a1d b4be
00000150: 7e2b 56be eb91 b03d 1404 e53d c97f 273c
00000160: c853 54be 3c82 833e 5a58 433e dda9 afbb
00000170: 993d b93e f34d 623e 5ff9 293d 24fc 3abc
00000180: 2c8f f7be 4cc5 dd3e c1b3 be3e a899 a83d
00000190: 3663 45be 75c7 b6be 0103 2abd cf78 ebbe
000001a0: 435f 69bd d613 b13d 87a6 653e 3b06 98bd
000001b0: 08b3 85bd 055b f23a e7ec 733e 8f17 883e
000001c0: f9ea ad3c f548 fe3e 738b 5d3e 543f ff3d
000001d0: a64a cc3e ead3 d53d 684d 8cbe 8a8d aa3e
000001e0: ec38 e2bc a9e3 4bbd fa69 133e daed b53d
000001f0: acf5 7fbe 7625 7ebd d3d3 21be 7f27 b8be
00000200: 61fe 4abe 049a 4b3e eb83 7bbe 1a55 953e
00000210: cdc0 bc3e f945 a1be 157b bf3e e428 303d
00000220: 1a15 9e3c 5b22 2c3e 7f5a 773b 2255 3a3e
00000230: c704 623e 6d6e c63d f163 ad3d 50ab 66be
00000240: b0da a8be 701a cfbe 3b53 1bbf 0ba6 9dbe
00000250: 9be2 b1bd 6259 8c3e 5725 67be 4081 87bc
00000260: 5973 0e3f 23ec 2c3d c06b 5a3d 94f1 bfbd
00000270: 09e7 81be c9fc 3d3c 705d c1be f332 e73d
00000280: 4f53 51be a0fb 33be 049c cc3e f785 87be
00000290: fab9 febc 7bf0 513e 9fa9 bebe f832 cabd
000002a0: 27a2 b23e c79f 573d 8601 b13b 0252 12bd
000002b0: ec7d e0be c257 bfbd 7133 083e 28b0 e1bd
000002c0: 600a 8ebd 2009 0fbe 533d 223d a265 713e
000002d0: 5a2f efbe fca8 0e3e 6bee 0d3f 1108 403e
000002e0: a253 a0bd 415b 123e edfd 1b3f 2ca1 d9be
000002f0: c2cc 393e bd19 a33e 1b3b f83e 248d e5ba
00000300: 3f92 efbe 6937 213d 14f1 853e 5dc9 84be
00000310: 7c22 82be 0adb 543e 1083 bebd 634d 70bb
00000320: 3682 123e 423d b3bd 82fa 9e3d f428 b7bd
00000330: 0eb5 73bd e9b2 c83c 3730 c9bd a598 3bbe
00000340: 4f83 8b3d 0adc 873e 04af 7f3e a872 5fbe
00000350: e05e 4d3d d99c bc3e 5e4d 193f 477f 3b3c
00000360: bfe0 dc3e f1e1 2b3e 8bd5 b63c 9255 81be
00000370: ce1b e43e 2137 863e 5099 d93e 8686 67bc
00000380: eda2 99bd 1d3c 6fbc d038 493c f80b eabd
00000390: 4628 46bc cfa6 a6be 2ffd a7bc da56 c9bd
000003a0: b16e e83e 5a83 d6be 6b21 833e 2403 c03e
000003b0: 3d30 cdbd 2b39 84be f231 43be 9514 d4bc
000003c0: bbc2 163e 1154 ccbe 3420 9e3e f350 27be
000003d0: 1585 58bd 4561 a9bd 9438 18be 49f4 9abe
000003e0: b263 b9be 6af5 4f3c 5530 2cbe 1763 98bd
000003f0: 9364 b33e 269d 3fbe d805 543e 2a22 94bb

initial_c f4 [12, 100]
0.13699867 0.08055359 -0.3630865 -0.010403543 -0.9345288 0.114330456 0.0059676156 -0.043330148
0.29596356 -0.23861702 -0.15735328 -0.38608533 -0.11897508 -0.2243512 -0.100902796 -0.3427949
0.5368882 -0.48591608 -0.4293163 0.04403879 -0.029940208 -0.14270116 -0.18706061 0.22810315
0.41116968 0.04890757 0.22891527 -0.74375093 0.2916964 0.26658306 0.06697917 0.06906218
-0.13628568 -0.28233105 -0.1906639 -0.21074925 -0.4207367 -0.26878726 0.45936576 0.27009842
-0.032497473 -0.2753813 0.06599871 -0.11849883 -0.011775741 0.00038326916 0.18124558 0.08853555
0.0780275 0.01959844 0.06364609 0.40015143 -0.3211528 -0.08724062 -0.04815818 -0.03179501
-0.23872106 -0.04443819 -0.15402883 -0.27590734 0.13960506 -0.118305765 -0.16416505 -0.1142951
-0.030814584 -0.042029984 -0.08584205 0.113171354 0.010805707 -0.2640938 0.13742971 0.20167397
0.45800573 0.19358374 0.0981833 -0.15669023 0.3858433 -0.2653106 -0.010007669 -0.11584294
0.09565212 -0.06816165 -0.04717785 -0.17523813 -0.13963763 0.03348654 -0.06192873 -0.11974836
0.15860164 0.19078696 -0.035939038 0.028765138 0.16569962 0.16840754 0.1269232 -0.13013868
-0.5283189 0.22665095 0.30292377 0.10703782 -0.0807951 -0.0966651 -0.0050641634 -0.60959345
0.75472516 -0.040721152 0.20468809 -0.10812725 -0.29600087 0.08199073 0.27016005 0.32516715
0.09259874 0.41449225 -0.2763558 0.18021904 0.17859545 0.21899633 -0.023590423 0.24578895
-0.20397696 -0.48935252 0.15553527 0.103542075 -0.10926165 -0.18432242 -0.09037912 -0.426145
-0.31975183 0.053551357 -0.21590808 0.37038705 0.25117883 -0.1594047 0.5462037 -0.086710654
0.044864196 0.3313751 -0.13958064 0.14865556 0.23053296 0.2326637 0.19690534 -0.35763824
-0.11231942 -0.89473474 -0.4918837 -0.20215443 -0.13804108 0.28461507 -0.14689793 0.1076244
0.73029935 -0.0054450696 -0.12770022 -0.3687992 -0.4853141 0.097399965 -0.09459039 0.33065197
0.17976484 -0.32995126 0.04841594 -0.58597416 -0.11293329 0.06249449 -0.48633984 -0.047687847
0.47457758 -0.055633932 0.009586608 -0.20087384 -0.3919548 0.0020821681 0.30176806 -0.22427224
-0.08863213 -0.53007585 0.073698424 0.26653314 -0.047458682 0.13003656 0.5710869 0.23430642
0.0019532114 0.18047033 0.9048284 -0.43537572 0.36245212 0.11512958 0.273787 0.14468794
-0.13808155 -0.081121385 0.25348374 -0.5107126 -0.44064316 0.1045092 0.13485444 -0.041033555
-0.044802066 -0.31386673 -0.009261856 -0.24308671 -1.2287787 0.14516371 0.031319723 -0.09110472
0.063244194 0.009318882 0.328839 0.012238694 0.11087624 0.25053683 0.89977133 -0.053064197
0.45179 -0.47560233 -0.49404478 -0.09209437 0.034194533 0.09985468 0.43134677 -0.016056236
0.038847283 0.059708152 0.023304177 -0.4209997 -0.058369048 -0.13925447 0.07436432 0.12978265
0.37743634 -0.2757335 0.4067928 0.4825437 0.073825106 -0.30137634 -0.11006639 -0.13394827
0.11862703 -0.25499028 0.08492469 -0.05923123 -0.060247377 -0.29872328 -0.47173393 -0.028432798
-0.43653125 -0.04167848 -0.17173515 -0.27174363 0.35845384 -0.11753713 0.15528618 0.024523105
00000000: 6149 0c3e 48f9 a43d 79e6 b9be 9f73 2abc
00000010: 483d 6fbf 1626 ea3d fd8b c33b f47a 31bd
00000020: 8988 973e 0558 74be 3821 21be faac c5be
00000030: 35a9 f3bd 52bc 65be 20a6 cebd d082 afbe
00000040: 8171 093f fec9 f8be 59cf dbbe 0562 343d
00000050: 2b45 f5bc 4120 12be d18c 3fbe df93 693e
00000060: d584 d23e 4e53 483d c468 6a3e 7666 3ebf
00000070: 3b59 953e 937d 883e 602c 893d 7970 8d3d
00000080: 798e 0bbe b28d 90be 663d 43be a7ce 57be
00000090: cd6a d7be 7c9e 89be fd31 eb3e 574a 8a3e
000000a0: 121c 05bd c7fe 8cbe 552a 873d 84af f2bd
000000b0: 0aef 40bc 84f1 c839 7198 393e 2052 b53d
000000c0: e2cc 9f3d e88c a03c e258 823d a6e0 cc3e
000000d0: 246e a4be 36ab b2bd 8341 45bd 7c3b 02bd
000000e0: 4b73 74be d204 36bd bcb9 1dbe ba43 8dbe
000000f0: a1f4 0e3e 4b4a f2bd e21a 28be 8d13 eabd
00000100: de6e fcbc a227 2cbd f5cd afbd 62c6 e73d
00000110: 6c0a 313c 4d37 87be 60ba 0c3e 9f83 4e3e
00000120: ba7f ea3e d13a 463e 5314 c93d 6773 20be
00000130: 418d c53e cad6 87be 35f7 23bc 103f edbd
00000140: 42e5 c33d 5698 8bbd 903d 41bd a071 33be
00000150: 2bfd 0ebe 2f29 093d fba8 7dbd a13e f5bd
00000160: 7868 223e a85d 433e d034 13bd dea4 eb3c
00000170: 29ad 293e 0773 2c3e 28f8 013e 1343 05be
00000180: e83f 07bf 3017 683e d318 9b3e a536 db3d
00000190: e777 a5bd 5af8 c5bd 48f1 a5bb 510e 1cbf
000001a0: ab35 413f 39cb 26bd c199 513e d271 ddbd
000001b0: 6d8d 97be c1ea a73d 6b52 8a3e 4f7c a63e
000001c0: 68a4 bd3d 5438 d43e 827e 8dbe 578b 383e
000001d0: bae1 363e 9340 603e b440 c1bc 19b0 7b3e
000001e0: 56df 50be 6a8c fabe a344 1f3e de0d d43d
000001f0: 92c4 dfbd 04bf 3cbe b018 b9bd ad2f dabe
00000200: 83b6 a3be ab58 5b3d 0217 5dbe 5fa3 bd3e
00000210: 839a 803e fc3a 23be 01d4 0b3f 5b95 b1bd
00000220: 85c3 373d ffa9 a93e 3aee 0ebe 2a39 183e
00000230: d510 6c3e 653f 6e3e 8ea1 493e 5c1c b7be
00000240: b907 e6bd 560d 65bf 2ed8 fbbe 9201 4fbe
00000250: a45a 0dbe 11b9 913e 696c 16be 2e6a dc3d
00000260: e6f4 3a3f 8e6c b2bb d9c3 02be 40d3 bcbe
00000270: 177b f8be a279 c73d 9bb8 c1bd 374b a93e
00000280: 4614 383e 5fef a8be cb4f 463d 6702 16bf
00000290: 9249 e7bd 39fa 7f3d 8901 f9be 5554 43bd
000002a0: d5fb f23e 68e0 63bd 2611 1d3c dfb1 4dbe
000002b0: 4dae c8be fc74 083b 5881 9a3e 9fa7 65be
000002c0: c384 b5bd 0db3 07bf 33ef 963d 0877 883e
000002d0: 0964 42bd 4e28 053e c032 123f 06ee 6f3e
000002e0: 7301 003b 37cd 383e d6a2 673f 91e9 debe
000002f0: 5393 b93e 0fc9 eb3d cf2d 8c3e 1329 143e
00000300: 4065 0dbe f822 a6bd 9fc8 813e 10be 02bf
00000310: fb9b e1be eb08 d63d 4817 0a3e cd12 28bd
00000320: 5f82 37bd 24b3 a0be 0abf 17bc b9eb 78be
00000330: 9f48 9dbf cca5 143e 1c49 003d 1d95 babd
00000340: 2c86 813d 39ae 183c 965d a83e ce84 483c
00000350: 1513 e33d 5d46 803e 6a57 663f d859 59bd
00000360: 0551 e73e 2682 f3be 70f3 fcbe f99b bcbd
00000370: 910f 0c3d 9c80 cc3d 7cd9 dc3e 5e88 83bc
00000380: 541e 1f3d 8990 743d 67e8 be3c 468d d7be
00000390: 6214 6fbd b998 0ebe 524c 983d bee5 043e
000003a0: 563f c13e f12c 8dbe 2547 d03e f80f f73e
000003b0: 9e31 973d 004e 9abe 7d6a e1bd bc29 09be
000003c0: baf2 f23d 168e 82be ffec ad3d 729c 72bd
000003d0: f4c5 76bd 42f2 98be 1c87 f1be e6eb e8bc
000003e0: 0681 dfbe 0eb7 2abd 57db 2fbe fb21 8bbe
000003f0: 4387 b73e 4fb7 f0bd 5703 1f3e aee4 c83c

h2h.weight_ih f4 [400, 2]
0.14435858 0.100970976 0.12483964 0.071193345 0.29256222 0.07516914 -0.027349971 0.29954794
0.2656044 -0.0041861115 0.057103235 -0.036887072 0.0813033 -0.010327719 -0.0701542 -0.01500695
0.11759416 0.07374985 0.034870584 0.0045845094 0.13793015 0.18737848 0.09201674 -0.0714232
0.022077112 0.1391146 0.031464297 0.20070836 0.22499688 0.07491271 0.15970889 0.079000756
0.16799422 0.2537298 -0.09427789 0.07684648 0.018537056 -0.036395546 0.054983016 0.17316934
-0.015043958 0.02741846 0.1828044 0.11357669 -0.16746998 0.24431556 0.06451117 0.08282968
0.097758956 0.09353251 -0.034672406 0.09122353 0.10690904 0.088373065 0.11649055 0.1961966
0.0030874677 0.071226664 0.024948077 0.04043814 0.067675464 0.11882599 0.08224264 0.10895159
0.20842332 0.0034482484 0.067918725 0.08774361 0.014235133 0.11035314 0.046050787 0.026267134
0.057343833 -0.049947727 -0.09819058 0.055614486 0.068453826 0.19860184 -0.17622358 -0.0117869545
0.20274709 -0.044787727 0.10336611 0.06682137 0.0071855383 0.06411939 0.011824276 0.06551187
-0.05233219 0.058884785 -0.07691963 0.044088066 0.11459131 -0.13271949 0.08381088 0.036185935
0.11378857 0.09730417 0.06354577 0.10026842 -0.10087414 -0.03342969 0.08367251 0.07982769
-0.15267298 -0.0441725 0.06308865 0.0058575766 0.024453864 0.10312412 0.1129861 0.11651173
-0.063991904 -0.019666541 -0.023071911 -0.10629795 0.1266482 0.0016553027 -0.036463268 0.077881105
0.3143791 0.055682085 0.14422354 0.09553273 0.04315316 0.06028279 0.01417143 0.275663
0.09594194 0.079635784 -0.043895535 -0.12631804 0.05614556 -0.0099948915 0.0023181145 0.019657956
0.08236223 -0.0054827905 0.02638225 -0.07359617 -0.05635944 -0.020202909 0.030440582 0.09518421
0.019756403 0.11887932 -0.1060979 -0.022574704 0.024020346 0.10637614 -0.16667823 0.04029892
0.033534802 -0.059967734 -0.18185729 0.047383305 0.022540145 -0.09005857 0.11535363 0.009994405
0.2348356 0.08981637 0.15641582 0.19808432 0.25288126 0.075555876 -0.039635215 0.018135514
0.10959488 0.15050253 -0.046768565 -0.085884854 0.102069914 0.031501018 0.08729751 0.12205448
0.074481905 0.048537657 -0.031459924 -0.0013509319 -0.06454421 0.06753597 0.12468763 -0.038923923
0.16255021 0.0027305956 -0.099964716 -0.11191323 -0.009328832 0.10301852 -0.08796341 0.33706298
0.12210779 0.04689837 -0.07601514 0.04283739 0.107060105 0.09324351 0.045111053 0.08689087
0.23971963 -0.05548529 0.0317237 0.14473154 0.26031235 0.070230916 -0.029938873 0.06429942
0.3988675 0.08565872 0.015222533 0.040355816 0.10677996 -0.056883372 -0.10110101 0.0049034194
0.0603778 -0.036946543 -0.05132082 0.16598296 -0.06745141 0.11080779 0.12844369 -0.10334128
0.10573286 0.056438703 -0.018032271 0.08653484 0.09858461 0.10721037 0.027861876 -0.112946846
0.1160831 0.15130459 0.026470069 -0.029792462 -0.026998745 -0.07072609 0.11767284 0.17462064
-0.040369973 0.05099107 0.050015956 0.16667728 -0.06507725 0.19165815 0.06804017 0.014052175
-0.0903449 -0.07971351 -0.04744905 -0.03617365 -0.0011973953 -0.01404243 0.20269357 0.13409238
00000000: bcd2 133e dfc9 ce3d edab ff3d d1cd 913d
00000010: b7ca 953e 47f2 993d 0c0d e0bc 595e 993e
00000020: 4dfd 873e a62b 89bb 15e5 693d e616 17bd
00000030: 5882 a63d 9835 29bc 01ad 8fbd b6df 75bc
00000040: 35d5 f03d 290a 973d 75d4 0e3d a739 963b
00000050: 903d 0d3e 25e0 3f3e 4673 bc3d 5446 92bd
00000060: 0fdb b43c 0f74 0e3e b5e0 003d 7e86 4d3e
00000070: 9565 663e d66b 993d ba8a 233e 26cb a13d
00000080: ad06 2c3e dfe8 813e c414 c1bd b061 9d3d
00000090: 06db 973c 7f13 15bd df35 613d 4e53 313e
000000a0: ef7a 76bc ae9c e03c 1431 3b3e e59a e83d
000000b0: 407d 2bbe dc2d 7a3e 6f1e 843d 9ba2 a93d
000000c0: d935 c83d f98d bf3d a704 0ebd 67d3 ba3d
000000d0: 20f3 da3d f0fc b43d 9992 ee3d c3e7 483e
000000e0: 1d57 4a3b 49df 913d e95f cc3c 77a2 253d
000000f0: 6f99 8a3d 0a5b f33d d46e a83d 0322 df3d
00000100: ec6c 553e 02fc 613b f918 8b3d ecb2 b33d
00000110: 7a3a 693c d400 e23d c09f 3c3d 2c2e d73c
00000120: 5ee1 6a3d fd95 4cbd 2518 c9bd 04cc 633d
00000130: 8531 8c3d 485e 4b3e f473 34be 121e 41bc
00000140: ef9c 4f3e 5673 37bd 9cb1 d33d a4d9 883d
00000150: aa74 eb3b 0751 833d 9cba 413c 162b 863d
00000160: 475a 56bd 2c31 713d 0a88 9dbd b095 343d
00000170: d9ae ea3d 9ee7 07be 0aa5 ab3d b437 143d
00000180: fb09 e93d 6947 c73d 4924 823d 8859 cd3d
00000190: 1a97 cebd 92ed 08bd 7e5c ab3d b37c a33d
000001a0: 4e56 1cbe 39ee 34bd 9f34 813d eaf0 bf3b
000001b0: 7853 c83c bd32 d33d 4265 e73d b49d ee3d
000001c0: 300e 83bd ba1b a1bc 4e01 bdbc bdb2 d9bd
000001d0: 11b0 013e bef6 d83a 825a 15bd 2180 9f3d
000001e0: 4cf6 a03e e612 643d 56af 133e aaa6 c33d
000001f0: 5ec1 303d 16eb 763d 492f 683c b323 8d3e
00000200: 357d c43d 1618 a33d cecb 33bd 8459 01be
00000210: e3f8 653d 9dc1 23bc 82eb 173b b909 a13c
00000220: 87ad a83d fba8 b3bb 971f d83c 97b9 96bd
00000230: 28d9 66bd 9280 a5bc 875e f93c f0ef c23d
00000240: 2ed8 a13c 0077 f33d db49 d9bd 96ee b8bc
00000250: 51c6 c43c bcdb d93d b3ad 2abe 7b10 253d
00000260: ca5b 093d baa0 75bd cc38 3abe ff14 423d
00000270: 1ca6 b83c a170 b8bd 863e ec3d 93bf 233c
00000280: be78 703e a5f1 b73d 782b 203e 9ed6 4a3e
00000290: a779 813e 0abd 9a3d 8958 22bd ee90 943c
000002a0: 4873 e03d 561d 1a3e 6590 3fbd 66e4 afbd
000002b0: 080a d13d 3607 013d 09c9 b23d b3f7 f93d
000002c0: f889 983d 6ccf 463d 1fdc 00bd c111 b1ba
000002d0: c12f 84bd 4c50 8a3d 3a5c ff3d b16e 1fbd
000002e0: 9073 263e cbf3 323b 4dba ccbd c332 e5bd
000002f0: f5d7 18bc 60fb d23d 2926 b4bd 8593 ac3e
00000300: a613 fa3d 8118 403d d3ad 9bbd 4276 2f3d
00000310: 5442 db3d 74f6 be3d 5ec6 383d d7f3 b13d
00000320: 1079 753e 8b44 63bd b6f0 013d 8134 143e
00000330: a947 853e 3ad5 8f3d 5e42 f5bc 6aaf 833d
00000340: 5c38 cc3e d76d af3d ee67 793c 244c 253d
00000350: 74af da3d 8afe 68bd 0c0e cfbd ddac a03b
00000360: b64e 773d 4255 17bd c835 52bd 70f7 293e
00000370: f723 8abd 32ef e23d be86 033e 98a4 d3bd
00000380: 788a d83d 452c 673d 6ab8 93bc 2e39 b13d
00000390: bae6 c93d 1c91 db3d 973e e43c ad50 e7bd
000003a0: fabc ed3d 97ef 1a3e c2d7 d83c 520f f4bc
000003b0: 792c ddbc d7d8 90bd 75fe f03d c1cf 323e
000003c0: fc5a 25bd 03dc 503d 88dd 4c3d 73ad 2a3e
000003d0: 3947 85bd 0942 443e a558 8b3d 183b 663c
000003e0: bf06 b9bd d640 a3bd ef59 42bd d22a 14bd
000003f0: ebf1 9cba 3812 66bc e78e 4f3e 834f 093e

h2h.weight_hh f4 [400, 100]
-0.15244432 -0.0075727445 -0.19916779 -0.1459211 -0.29970226 -0.28387272 0.15367341 -0.13454823
-0.087337434 0.14177851 0.1452602 0.0629924 -0.11180434 0.24718362 0.033737987 -0.08270015
0.016862024 -0.07986244 -0.26097953 -0.42574322 0.13579254 0.18366194 0.28674477 0.098478
0.0472566 0.33516 0.037006404 -0.24159011 0.25486177 -0.0011433245 0.021795144 -0.08940538
-0.3207428 -0.19327076 0.34560853 0.10891602 -0.3020593 0.073456794 0.012483412 -0.009480295
-0.06311706 -0.08612705 -0.026436321 0.08227405 -0.068309575 -0.2533243 -0.17626053 -0.15963322
-0.16326523 0.14536335 -0.12334672 -0.09292025 -0.1841005 -0.14313778 0.052371565 -0.17733473
0.0124853905 0.14785819 -0.16945031 -0.113240816 -0.42983404 -0.25913045 0.0873454 -0.19082333
-0.20308717 0.09022462 -0.046961304 -0.027416766 0.25873888 0.07629009 0.35687703 -0.008825675
0.062554754 -0.21879607 0.22348207 -0.023882076 0.071790434 0.32214463 -0.053875465 0.34978282
-0.27097526 0.2627147 0.3565891 0.3263663 0.034009326 -0.04573739 0.19113368 -0.03624665
-0.25487715 0.11760462 -0.011358203 0.05958439 -0.038721066 0.32641828 0.16856608 -0.12858933
-0.2264601 0.1833162 -0.2689908 0.103472315 0.017390331 0.092982754 -0.16473392 -0.065870225
-0.021398949 -0.07048473 0.11689545 -0.1487121 -0.020460157 0.13251384 -0.04002462 0.03369293
0.03846274 0.043444283 -0.088588566 0.010214753 0.10681568 0.070898145 -0.0003888547 -0.061172023
-0.06809379 0.14540808 0.10721238 -0.074516855 0.16351226 0.033532094 0.01049905 -0.022318238
0.16770285 0.08565334 -0.122542314 -0.03097662 -0.07393607 -0.07387138 0.19121435 0.057211578
-0.010345425 -0.0015858947 0.104143985 0.18398489 -0.10195757 0.029578224 0.038491547 0.015604996
-0.07299369 -0.13250354 -0.16839042 0.025718102 0.01200267 -0.000523428 -0.009160241 0.21724673
-0.033407822 0.025213122 0.011440097 -0.17997988 -0.026634784 0.058791734 -0.046535604 0.16268435
-0.14497033 -0.15218146 -0.11690175 -0.07257489 -0.11088751 0.06567669 0.1679161 -0.011134338
-0.02247798 0.078369275 0.12155378 0.066071644 0.022820102 -0.025874047 0.0566735 -0.14920004
-0.0407242 -0.022281483 -0.012059255 0.031419136 -0.12537119 0.099546984 0.142195 -0.038982905
0.052269172 0.094929405 0.055857424 0.121695034 -0.12990256 0.14911968 -0.036968086 0.14736608
-0.13913597 0.097936966 0.13849461 0.054043554 -0.04804954 0.10712916 0.037113857 -0.12438064
-0.34455702 0.06378021 -0.19095135 -0.04936286 -0.10300273 -0.06084249 -0.09052672 0.042634577
0.06069367 0.04521882 0.18355079 -0.069773406 -0.13781717 0.10343263 -0.046620626 0.118795864
0.24809355 0.22749898 -0.1370109 0.011918796 -0.048867658 -0.08868543 0.16253121 -0.04041215
0.08363468 0.030712776 0.04239059 -0.08854831 0.08396524 0.060909048 -0.009408939 -0.26987576
-0.11723082 -0.106192574 0.21141213 -0.054613337 -0.13252835 0.065064035 0.14705227 0.21757184
0.020812472 -0.06578569 -0.043555513 -0.056255862 -0.087678395 -0.006804618 -0.18475899 -0.101117656
-0.12041556 0.20243712 0.0013116327 0.019800557 0.019564835 -0.035730228 -0.16995046 0.074110724
00000000: 5d1a 1cbe c924 f8bb a4f2 4bbe 576c 15be
00000010: 9372 99be c457 91be 905c 1d3e 03c7 09be
00000020: f8dd b2bd 632e 113e 17bf 143e 2902 813d
00000030: acf9 e4bd b41d 7d3e d830 0a3d b25e a9bd
00000040: 3a22 8a3c eb8e a3bd 1c9f 85be 04fb d9be
00000050: 330d 0b3e e011 3c3e 36d0 923e d5ae c93d
00000060: 2390 413d 179a ab3e 0794 173d 6663 77be
00000070: 3e7d 823e 9bdb 95ba bb8b b23c 2b1a b7bd
00000080: 6638 a4be c5e8 45be 9af3 b03e 5d0f df3d
00000090: 84a7 9abe 8470 963d 3a87 4c3c 3d53 1bbc
000000a0: 8443 81bd 6163 b0bd fc90 d8bc 4c7f a83d
000000b0: e4e5 8bbd b9b3 81be a47d 34be e476 23be
000000c0: 002f 27be 21da 143e 359d fcbd f94c bebd
000000d0: d784 3cbe b692 12be 9183 563d 3c97 35be
000000e0: 868f 4c3c 2368 173e 6284 2dbe cdea e7bd
000000f0: 3513 dcbe bfac 84be 25e2 b23d 3167 43be
00000100: 15f6 4fbe b0c7 b83d 7f5a 40bd 2099 e0bc
00000110: 6c79 843e fb3d 9c3d 96b8 b63e 9099 10bc
00000120: b51c 803d 140c 60be 7cd8 643e 58a4 c3bc
00000130: dd06 933d 24f0 a43e 85ac 5cbd bc16 b33e
00000140: 45bd 8abe 8b82 863e d992 b63e 7c19 a73e
00000150: 5d4d 0b3d 2157 3bbd 8cb8 433e 5e77 14bd
00000160: 427f 82be b1da f03d c217 3abc c30e 743d
00000170: fb99 1ebd 4c20 a73e 969c 2c3e ecac 03be
00000180: 28e5 67be 3eb7 3b3e 2ab9 89be 4be9 d33d
00000190: 2b76 8e3c be6d be3d 02b0 28be f8e6 86bd
000001a0: d94c afbc 4c5a 90bd e266 ef3d fc47 18be
000001b0: 0f9c a7bc b5b1 073e dbf0 23bd 9901 0a3d
000001c0: 1b8b 1d3d a2f2 313d ec6d b5bd c85b 273c
000001d0: 2ec2 da3d 0c33 913d 32df cbb9 848f 7abd
000001e0: c274 8bbd dbe5 143e 2a92 db3d 4b9c 98bd
000001f0: c26f 273e f358 093d 3504 2c3c bdd4 b6bc
00000200: 4cba 2b3e 056b af3d 77f7 fabd aec2 fdbc
00000210: cb6b 97bd e149 97bd b2cd 433e b056 6a3d
00000220: dc7f 29bc ccdd cfba 7149 d53d 8966 3c3e
00000230: 21cf d0bd 084e f23c 50a9 1d3d 19ac 7f3c
00000240: b77d 95bd 02af 07be 8a6e 2cbe c5ae d23c
00000250: d9a6 443c a936 09ba d614 16bc ed75 5e3e
00000260: a4d6 08bd c08b ce3c 3f6f 3b3c a54c 38be
00000270: 3131 dabc 9acf 703d 1e9c 3ebd ba96 263e
00000280: 1a73 14be 75d5 1bbe 2f6a efbd 25a2 94bd
00000290: fe18 e3bd 8081 863d 33f2 2b3e cc6c 36bc
000002a0: be23 b8bc 1280 a03d 30f1 f83d 9250 873d
000002b0: 39f1 ba3c cff5 d3bc 7922 683d e5c7 18be
000002c0: 6bce 26bd a887 b6bc 2e94 45bc 5ab1 003d
000002d0: 4e61 00be 4adf cb3d 919b 113e 8aac 1fbd
000002e0: 3318 563d 596a c23d c1ca 643d 3f3b f93d
000002f0: 2d05 05be d4b2 183e d96b 17bd 22e7 163e
00000300: a979 0ebe 2d93 c83d 88d1 0d3e c65c 5d3d
00000310: 98cf 44bd 8866 db3d b304 183d 47bb febd
00000320: c769 b0be 339f 823d c088 43be b630 4abd
00000330: 18f3 d2bd fa35 79bd 1366 b9bd 98a1 2e3d
00000340: ed99 783d 5f37 393d bdf4 3b3e 5ce5 8ebd
00000350: f21f 0dbe 7dd4 d33d 45f5 3ebd 3f4b f33d
00000360: 3c0c 7e3e 7ef5 683e 964c 0cbe 0e47 433c
00000370: 7429 48bd b5a0 b5bd 956e 263e 3687 25bd
00000380: a948 ab3d 5c99 fb3c c1a1 2d3d d158 b5bd
00000390: f8f5 ab3d c47b 793d f327 1abc 282d 8abe
000003a0: b616 f0bd 7e7b d9bd 6c7c 583e 3cb2 5fbd
000003b0: 83b5 07be 4b40 853d df94 163e 27cb 5e3e
000003c0: eb7e aa3c a6ba 86bd 4467 32bd 8c6c 66bd
000003d0: bb90 b3bd 46f9 debb 7631 3dbe c616 cfbd
000003e0: 6f9c f6bd ad4b 4f3e 17eb ab3a c734 a23c
000003f0: 6f46 a03c dc59 12bd 7e07 2ebe 5dc7 973d

h2h.bias_ih f4 [400]
0.18744972 0.015348983 -0.029006219 0.04006669 0.0010351966 0.11820823 -0.023422858 0.0005701224
0.051641736 0.030698929 0.06070391 0.00086058554 0.06240831 -0.04973278 0.058354236 0.039200068
0.10520889 0.080254994 -0.020979857 0.0025022454 -0.032895282 0.023381047 0.096323736 0.016124511
0.0060989647 0.02339621 -0.03478955 0.18103862 0.06337447 0.06520487 0.0506432 0.024557233
0.026662802 0.06629159 -0.038393468 0.07417048 0.049041953 -0.09738035 0.11488477 0.026720967
0.061088756 0.035929132 -0.05180865 0.05344044 -0.04796818 -0.05451462 0.06729422 0.106322505
-0.026415082 0.067340635 0.017943088 0.09628988 0.055098098 0.055354513 0.08213779 -0.008531508
-0.055027455 0.11145484 -0.035378855 0.061584976 0.2367943 -0.013987738 0.03960784 0.16872844
-0.025203088 0.055217054 0.040202484 -0.0005153172 0.027302573 0.0026472276 0.051640444 -0.074359216
0.005085785 0.056867126 0.04143465 0.106363595 0.024410862 0.038368516 -0.08698117 0.04883813
0.021706928 0.06594072 -0.07504518 0.05582761 0.05397138 -0.0932474 0.12269837 0.06546684
-0.049449757 -0.032180976 -0.051886134 -0.0834484 0.006166366 0.040574633 0.09987598 0.15653343
0.041119736 -0.08383488 0.06306904 0.04604643 0.025143905 -0.024909321 -0.023335949 0.04488102
0.03744238 -0.06492846 -0.002832102 0.04142114 0.08197508 -0.03837277 0.008565223 0.07981141
0.08906832 -0.0031776915 0.13659492 0.16770478 0.091310956 0.011599173 0.0017711596 0.005064468
0.021196129 0.074027136 0.05325493 -0.05399853 -0.036226116 -0.08933773 0.01678236 0.034502357
-0.07752922 0.13229054 -0.029160924 0.027761823 -0.06837186 0.06066639 0.01317072 0.03124965
0.13864027 -0.029148143 -0.033047978 0.10064567 0.13588947 0.009702661 -0.09273757 -0.091736056
-0.037690222 0.13161339 0.18267854 -0.07842872 -0.090133294 -0.029645732 -0.08677597 0.099957794
-0.0039250874 -0.086132936 0.05867256 0.08506769 -0.06620766 -0.049221076 -0.0064519104 0.04613637
0.1311058 0.003835476 0.054255858 0.21062516 0.08821478 0.03116163 0.12530924 -0.015484776
0.0066227056 0.079822384 0.0068943473 0.01684576 0.066826545 0.05622214 0.11187986 0.07310226
0.07080633 0.05166185 -0.0022180076 -0.020058714 0.05116493 0.109911636 -0.035290454 0.06725937
-0.0018657519 -0.0065523162 -0.03162139 0.008584528 0.033826265 -0.09014719 -0.028929617 0.0446525
0.09886334 -0.015782071 0.11240289 -0.0526509 0.0030551888 -0.008346282 -0.053974986 0.084956504
0.052817915 0.018588588 0.012126908 -0.054071926 -0.08231491 -0.034151252 0.04166179 -0.06413204
0.022988003 0.09349779 0.0702426 -0.076871224 -0.123089984 0.05630971 -0.088042945 -0.065046504
0.020039069 0.012128991 0.030839587 -0.008533913 -0.003321223 0.10189151 0.074867055 0.10886237
0.012696503 -0.06835218 0.03815537 -0.032645006 -0.052678224 0.124166384 -0.11190201 -0.0033374021
0.046074588 0.06592147 -0.01142353 0.031542893 0.09620282 0.018932983 0.046614446 -0.0644879
-0.028744243 -0.05805025 -0.055071503 -0.015710834 -0.10387061 -0.07502827 -0.09345105 -0.11783232
0.046934057 0.103324525 -0.11809076 -0.102313176 -0.019398376 -0.019671423 -0.06898571 -0.06311581
00000000: d2f2 3f3e 4d7a 7b3c 739e edbc f81c 243d
00000010: 6faf 873a 2817 f23d 4be1 bfbc 4474 153a
00000020: 4986 533d 527c fb3c aaa4 783d eb98 613a
00000030: db9f 7f3d 99b4 4bbd da04 6f3d 4090 203d
00000040: c277 d73d bb5c a43d f3dd abbc b6fc 233b
00000050: 34bd 06bd 9c89 bf3c 6145 c53d 8d17 843c
00000060: d3d9 c73b 69a9 bf3c 7d7f 0ebd 3062 393e
00000070: 79ca 813d 228a 853d 3e6f 4f3d 402c c93c
00000080: f36b da3c e3c3 873d 7842 1dbd b1e6 973d
00000090: 37e0 483d 596f c7bd b548 eb3d eee5 da3c
000000a0: 3438 7a3d 6d2a 133d 4f35 54bd 5de4 5a3d
000000b0: 487a 44bd b94a 5fbd 8dd1 893d 9dbf d93d
000000c0: 7164 d8bc e3e9 893d 62fd 923c a133 c53d
000000d0: 8bae 613d 6abb 623d dc37 a83d bdc7 0bbc
000000e0: 7864 61bd 6f42 e43d 6be9 10bd 8740 7c3d
000000f0: 347a 723e d32c 65bc d53b 223d 26c7 2c3e
00000100: b576 cebc 472b 623d 5cab 243d 5a16 07ba
00000110: a5a9 df3c 1c7d 2d3b ee84 533d a549 98bd
00000120: a8a6 a63b 81ed 683d 61b7 293d 28d5 d93d
00000130: 4af9 c73c 4e28 1d3d 2f23 b2bd 7e0a 483d
00000140: bad2 b13c ee0b 873d 4ab1 99bd 7eab 643d
00000150: 1811 5d3d 7ef8 bebd 4849 fb3d 7b13 863d
00000160: d48b 4abd 33d0 03bd 8e86 54bd ffe6 aabd
00000170: 3a0f ca3b 9631 263d c78b cc3d 4d4a 203e
00000180: 2b6d 283d 9fb1 abbd 572a 813d 2e9b 3c3d
00000190: 97fa cd3c a20e ccbc 082b bfbc 29d5 373d
000001a0: 2e5d 193d 36f9 84bd c99a 39bb 37a9 293d
000001b0: 8de2 a73d c42c 1dbd 2655 0c3c 2a74 a33d
000001c0: 7469 b63d d140 50bb 8adf 0b3e cdba 2b3e
000001d0: 3d01 bb3d 750a 3e3c 4126 e83a d6f3 a53b
000001e0: 81a3 ad3c 8a9b 973d d721 5a3d 902d 5dbd
000001f0: d661 14bd b3f6 b6bd 297b 893c 5852 0d3d
00000200: a4c7 9ebd 2c77 073e e4e2 eebc c36c e33c
00000210: 8c06 8cbd 527d 783d 01ca 573c 44ff ff3c
00000220: b7f7 0d3e 16c8 eebc 515d 07bd 511f ce3d
00000230: 9c26 0b3e e9f7 1e3c 32ed bdbd 1de0 bbbd
00000240: 1061 1abd a9c5 063e 1510 3b3e 3d9f a0bd
00000250: ce97 b8bd 9bdb f2bc 9ab7 b1bd acb6 cc3d
00000260: 059e 80bb 7766 b0bd a352 703d f837 ae3d
00000270: e297 87bd 0a9c 49bd 8c6a d3bb 7ef9 3c3d
00000280: 9940 063e 9c5c 7b3b 643b 5e3d 1fae 573e
00000290: f3a9 b43d ad46 ff3c 1151 003e dcb3 7dbc
000002a0: 4803 d93b eb79 a33d fae9 e13b 1f00 8a3c
000002b0: 5bdc 883d 3049 663d 4521 e53d a3b6 953d
000002c0: e902 913d 609b 533d fe5b 11bb 2c52 a4bc
000002d0: 5192 513d 5a19 e13d b98c 10bd 48bf 893d
000002e0: 3f8c f4ba d0b4 d6bb 6e85 01bd 1fa6 0c3c
000002f0: 698d 0a3d 179f b8bd cefd ecbc 8ae5 363d
00000300: dd78 ca3d 6749 81bc 7d33 e63d 78a8 57bd
00000310: 9039 483b d8be 08bc e014 5dbd adfd ad3d
00000320: 9957 583d 1847 983c f0af 463c 867a 5dbd
00000330: b894 a8bd 2fe2 0bbd 8ea5 2a3d a957 83bd
00000340: 5651 bc3c c57b bf3d 5adb 8f3d a96e 9dbd
00000350: 9a16 fcbd 03a5 663d dc4f b4bd 1a37 85bd
00000360: f928 a43c adb8 463c 4da3 fc3c d3d1 0bbc
00000370: e0a8 59bb 7fac d03d e653 993d 3cf3 de3d
00000380: fe04 503c 3afc 8bbd ce48 1c3d c5b6 05bd
00000390: 1fc5 57bd f24a fe3d e22c e5bd 51b8 5abb
000003a0: b5b8 3c3d d601 873d c229 3bbc 1f33 013d
000003b0: fc05 c53d 5819 9b3c caee 3e3d 3b12 84bd
000003c0: 0c79 ebbc 19c6 6dbd a892 61bd 02b4 80bc
000003d0: 1dba d4bd 6ca8 99bd 4463 bfbd 1252 f1bd
000003e0: ed3d 403d cf9b d33d 92d9 f1bd 9289 d1bd
000003f0: 58e9 9ebc f725 a1bc 6148 8dbd dd42 81bd

h2h.bias_hh f4 [400]
0.08510379 0.1124651 0.12538221 0.1592477 0.03739694 0.015208751 -0.05318883 0.0028355662
0.09021223 -0.042689327 0.013345907 0.06893201 0.0021538404 0.0866326 -0.01767098 0.20331699
0.27629733 0.057526164 -0.012394312 -0.030156732 -0.028027494 -0.0011863858 0.09550201 -0.023347987
-0.0075681233 0.007877837 0.084822126 0.123925224 -0.030255895 -0.041920062 0.15992145 -0.020595673
0.03176224 -0.03692953 -0.04356273 0.036417894 0.005033743 0.01631093 0.15776227 0.11386893
0.03569751 0.02292096 0.10258324 0.06818294 0.100265 -0.041665368 0.03375801 0.1020774
-0.051739346 -0.036506146 -0.078555875 0.12101168 0.104766786 0.012499054 -0.04080331 0.0059030754
-0.0006423691 -0.056495126 -0.020437965 -0.031980272 0.19876936 0.12469358 0.04402676 0.15112352
-0.065773346 -0.00897697 -0.046949707 0.037973043 0.15377384 0.108092 0.006251505 0.06335872
0.030076139 0.048353437 0.082623936 0.10765134 0.001749268 0.09665012 0.04486544 -0.028413398
0.10008756 0.034986015 0.015881576 0.02984678 0.0721792 -0.010861146 0.06950494 0.12189906
-0.008856192 -0.07317056 -0.08070371 0.020030182 0.03168448 -0.019227814 0.011791383 0.17064624
0.032529894 -0.041423544 0.06981129 0.054876797 -0.02818324 0.019820102 0.11119764 -0.017614853
0.1394391 0.07554296 0.039963506 -0.11226224 -0.02648659 -0.020855023 0.095900975 -0.07288231
0.07470411 0.024093581 0.10362089 0.008121981 0.18609163 0.02592983 -0.08910434 -0.06699567
0.023781953 0.05993617 0.07497766 -0.06310846 0.07982983 -0.029647898 0.07202036 0.17729616
-0.009201221 0.022516767 0.12546772 0.08294735 0.043324288 0.07007464 0.14465363 -0.02192615
0.17771381 -0.018716013 -0.04963478 0.044917338 0.08688886 0.061998025 0.022267092 -0.054242592
-0.0025792932 0.02477979 0.11714877 0.0059207827 -0.018907448 0.0773527 0.027617024 -0.042539645
0.0340303 0.061806645 -0.06114781 -0.054282263 -0.07917386 0.009531146 0.074443 0.12601222
0.0075995913 0.096239105 -0.06617756 0.18748678 0.029010303 -0.038897507 0.06973052 -0.08148413
0.08460109 -0.0028788126 -0.10810683 -0.07547975 -0.004517843 0.03395789 0.040384464 0.045177292
0.08706491 0.106963955 0.006670946 0.052171275 0.159213 0.031596284 -0.014630174 0.17352208
0.16820005 -0.037611965 -0.047774613 0.10869653 0.045277577 0.07447002 -0.048016936 -0.012982499
-0.027462048 0.11053436 0.07729112 0.07375725 -0.007486947 -0.0029358459 0.06998338 0.08940122
0.0911481 0.07167038 0.024569854 0.057150133 -0.008052666 -0.048681285 0.06834412 -0.016719013
0.12615156 0.03692072 0.07912141 0.03414757 -0.08087972 0.11202114 0.09622133 0.047252707
-0.056406766 -0.044942643 -0.11899441 -0.041226514 0.059087444 0.02247412 0.0024476736 0.14747739
0.078701556 -0.06342502 0.0884672 -0.042014364 0.06795824 -0.006576256 0.028525893 0.017122218
0.10931347 -0.11244023 -0.0087994225 0.11230333 -0.041320857 0.040443383 -0.072163336 0.11042567
0.060297176 -0.11635272 0.062083572 -0.048130497 -0.007288157 0.05260783 -0.06279642 -0.08338337
-0.02291512 -0.018808693 -0.042543527 -0.006833974 0.028019894 -0.02166752 -0.086725704 0.047750916
00000000: e54a ae3d 1a54 e63d 3264 003e d411 233e
00000010: 892d 193d 202e 793c 88dc 59bd e8d4 393b
00000020: 31c1 b83d 01db 2ebd cba8 5a3c 3a2c 8d3d
00000030: 7227 0d3b 6f6c b13d bbc2 90bc 5432 503e
00000040: d876 8d3e 8ea0 6b3d 8311 4bbc 400b f7bc
00000050: ea99 e5bc 8080 9bba 8f96 c33d 4744 bfbc
00000060: 05fe f7bb 0b12 013c 39b7 ad3d 82cc fd3d
00000070: 36db f7bc 5fb4 2bbd 73c2 233e 42b8 a8bc
00000080: 1f19 023d 6b43 17bd d56e 32bd ee2a 153d
00000090: 19f2 a43b 809e 853c 6f8c 213e 1d34 e93d
000000a0: 8d37 123d bdc4 bb3c 2917 d23d 7fa3 8b3d
000000b0: bc57 cd3d 4ea9 2abd d745 0a3d f50d d13d
000000c0: a3ec 53bd 7887 15bd e7e1 a0bd f9d4 f73d
000000d0: f88f d63d d5c8 4c3c 5f21 27bd 966e c13b
000000e0: a964 28ba 6f67 67bd 856d a7bc bffd 02bd
000000f0: 328a 4b3e 595f ff3d 6755 343d 20c0 1a3e
00000100: 2db4 86bd 2414 13bc 564e 40bd 9f89 1b3d
00000110: e476 1d3e 575f dd3d 6dd9 cc3b 37c2 813d
00000120: 3c62 f63c 410e 463d bd36 a93d 4e78 dc3d
00000130: b247 e53a 80f0 c53d d3c4 373d 37c3 e8bc
00000140: b5fa cc3d 7f4d 0f3d 141a 823c 3c81 f43c
00000150: b0d2 933d f3f2 31bc 9b58 8e3d 37a6 f93d
00000160: 9019 11bc 72da 95bd fd47 a5bd 5616 a43c
00000170: 96c7 013d a683 9dbc a530 413c e3bd 2e3e
00000180: 113e 053d bcab 29bd 39f9 8e3d 7ec6 603d
00000190: 8ae0 e6bc c45d a23c 97bb e33d 064d 90bc
000001a0: 20c9 0e3e 44b6 9a3d c6b0 233d bfe9 e5bd
000001b0: 68fa d8bc 27d8 aabc bb67 c43d 5243 95bd
000001c0: 78fe 983d e75f c53c 3037 d43d 0f12 053c
000001d0: ce8e 3e3e cb6a d43c 567c b6bd 0735 89bd
000001e0: 5fd2 c23c a17f 753d e38d 993d 023f 81bd
000001f0: d27d a33d 26e0 f2bc 697f 933d 208d 353e
00000200: b8c0 16bc 1575 b83c 9c7a 003e 4de0 a93d
00000210: cf74 313d 4b83 8f3d 1520 143e 789e b3bc
00000220: 9cfa 353e 5352 99bc d74d 4bbd 3efb 373d
00000230: c9f2 b13d a4f1 7d3d 7a69 b63c 7b2d 5ebd
00000240: 5c09 29bb fcfe ca3c b2eb ef3d 2003 c23b
00000250: cbe3 9abc 186b 9e3d 193d e23c 0d3e 2ebd
00000260: 5b63 0b3d f728 7d3d 2076 7abd 1457 5ebd
00000270: e825 a2bd 8628 1c3c 9275 983d 5909 013e
00000280: fe05 f93b 0219 c53d 1a88 87bd 89fc 3f3e
00000290: 04a7 ed3c fe52 1fbd e0ce 8e3d 27e1 a6bd
000002a0: 5643 ad3d 76aa 3cbb 1d67 ddbd 2195 9abd
000002b0: 6a0a 94bb 6e17 0b3d 2e6a 253d d30b 393d
000002c0: 164f b23d eb0f db3d f397 da3b 8cb1 553d
000002d0: bc08 233e 1b6b 013d 66b3 6fbc c6af 313e
000002e0: a23c 2c3e 010f 1abd 50af 43bd 499c de3d
000002f0: fb74 393d bd83 983d 68ad 44bd 8cb4 54bc
00000300: 17f8 e0bc d75f e23d cf4a 9e3d 0b0e 973d
00000310: 1055 f5bb 5267 40bb 7253 8f3d fd17 b73d
00000320: dbab ba3d ecc7 923d b846 c93c 4216 6a3d
00000330: 54ef 03bc 0766 47bd 01f8 8b3d 50f6 88bc
00000340: e02d 013e 2e3a 173d 680a a23d 53de 0b3d
00000350: 44a4 a5bd 576b e53d b00f c53d 0e8c 413d
00000360: c80a 67bd c715 38bd 57b3 f3bd 22dd 28bd
00000370: ad05 723d a51b b83c 2669 203b 5004 173e
00000380: 482e a13d fae4 81bd 4b2e b53d 4117 2cbd
00000390: b12d 8b3d a27d d7bb 22af e93c e543 8c3c
000003a0: bedf df3d 1047 e6bd 742b 10bc 4aff e53d
000003b0: 0f40 29bd f6a7 253d 5fca 93bd db26 e23d
000003c0: 2cfa 763d 564a eebd 584b 7e3d 7c24 45bd
000003d0: 7ed1 eebb 4f7b 573d 699b 80bd e6c4 aabd
000003e0: 7db8 bbbc b014 9abc 1f42 2ebd 87ef dfbb
000003f0: fa89 e53c 1580 b1bc 3f9d b1bd 7796 433d

h2o.weight f4 [2, 100]
-0.17582709 0.05698886 -0.07690525 -0.0021724298 -0.13712549 -0.08366316 0.09754709 0.007326538
0.122073375 0.030337546 0.064195506 -0.121299505 -0.03722282 0.04752025 0.07788183 -0.080279745
0.045503065 -0.035933387 -0.053526893 -0.0035617426 0.032692432 0.12503664 -0.05514273 0.07520423
0.073796086 0.023660176 0.029981462 -0.053421997 0.010575223 0.12991212 0.0544717 -0.11554973
-0.10555357 -0.03735671 0.10718294 0.015324223 0.015472047 0.029311074 0.020876264 0.12542506
-0.041212674 -0.049133364 0.044260975 -0.07624504 -0.08331356 -0.04625597 -0.12769873 -0.090678595
-0.04980545 0.11968897 -0.022419492 -0.024647389 -0.010777407 -0.08585811 -0.002982557 -0.011163602
0.0033050636 0.12080978 -0.09143619 0.0077668563 -0.19087403 -0.09501335 0.06446765 -0.030587522
-0.11128128 0.07227177 -0.0126923695 -0.093142904 0.10641959 0.124073915 0.09978641 0.13136949
-0.05706309 -0.006920377 -0.16217206 -0.015222997 0.041921716 -0.098191455 -0.0011031505 0.102108136
-0.112661324 0.062563546 0.15576084 0.04203065 -0.013158249 0.044761956 0.07334603 -0.053444587
-0.060106367 0.0932028 0.09629383 -0.026585676 -0.07755307 0.08233841 0.086879976 0.06756385
-0.043798726 0.040927798 0.007699575 0.18629996 -0.062134758 0.09400765 0.00055774534 -0.05384382
0.022400605 0.051617283 -0.042080004 -0.050611664 0.13429104 0.047635496 0.078617305 -0.054773737
-0.065530784 0.093057714 -0.008997271 0.017328247 0.036598638 0.023825763 -0.08020271 -0.1190075
0.16623667 0.063469164 0.14813972 0.082676455 0.065884076 0.061031327 0.06443366 -0.042012576
0.022449467 0.01909246 -0.12221064 0.027614217 0.05642092 -0.044535372 0.015676698 0.1381895
-0.019339187 0.024732908 0.18797833 -0.049957223 0.043194577 -0.13589534 0.06236933 -0.07666358
-0.084457815 -0.029540082 0.0437941 0.007553984 -0.06874509 -0.01104981 0.021764614 0.11989632
-0.0077248705 -0.058953445 -0.10436427 -0.0517687 -0.027305037 -0.072624244 -0.07377837 0.028872399
0.032412402 -0.04539007 0.11192788 -0.10882695 -0.018115582 0.0047922162 -0.03201579 -0.10653013
0.028672133 -0.117695935 0.03223342 0.05550756 0.08142101 -0.014946399 0.18211047 -0.085343055
0.050421316 -0.030288724 -0.097048566 0.0716262 -0.017295988 0.041857336 0.0064593274 -0.12398386
-0.01909124 0.031333923 -0.03920441 -0.08663318 -0.011436027 0.03540767 -0.050508805 0.0965245
-0.09780664 -0.024404516 0.10955528 -0.10558441 0.06003673 0.09775857 -0.114462554 -0.03371404
00000000: 040c 34be 276d 693d 8080 9dbd 535f 0ebb
00000010: a06a 0cbe 9757 abbd c5c6 c73d 7513 f03b
00000020: 9b01 fa3d 7286 f83c ef78 833d e06b f8bd
00000030: f576 18bd 98a4 423d 8280 9f3d b569 a4bd
00000040: 6c61 3a3d e32e 13bd 043f 5bbd 206c 69bb
00000050: 80e8 053d 9b09 003e 58dd 61bd ad04 9a3d
00000060: 6722 973d fcd2 c13c af9b f53c 06d1 5abd
00000070: b343 2d3c af07 053e b81d 5f3d 56a5 ecbd
00000080: 782c d8bd 5903 19bd bb82 db3d 7312 7b3c
00000090: 787e 7d3c c71d f03c b304 ab3c 6d6f 003e
000000a0: 9fce 28bd 1140 49bd ff4a 353d 5c26 9cbd
000000b0: 4da0 aabd e676 3dbd 75c3 02be b3b5 b9bd
000000c0: cd00 4cbd 7e1f f53d 15a9 b7bc 52e9 c9bc
000000d0: b993 30bc 60d6 afbd 0177 43bb 8ae7 36bc
000000e0: c499 583b 1e6b f73d e642 bbbd 1d81 fe3b
000000f0: 7b74 43be 5c96 c2bd 9e07 843d af92 fabc
00000100: 71e7 e3bd 3903 943d a8f3 4fbc b5c1 bebd
00000110: 84f2 d93d 771a fe3d d15c cc3d b985 063e
00000120: fdba 69bd 54c4 e2bb 6f10 26be e169 79bc
00000130: 1bb6 2b3d 9a18 c9bd 9797 90ba 121e d13d
00000140: fbba e6bd 5121 803d c57f 1f3e 5528 2c3d
00000150: b295 57bc 5058 373d 7236 963d b6e8 5abd
00000160: 1832 76bd 1ce1 be3d b335 c53d 34ca d9bc
00000170: 25d4 9ebd 0aa1 a83d 21ee b13d ea5e 8a3d
00000180: 4b66 33bd e8a3 273d b74c fc3b 6bc5 3e3e
00000190: 0481 7ebd 1587 c03d a835 123a 568b 5cbd
000001a0: 7981 b73c a56c 533d 155c 2cbd 2d4e 4fbd
000001b0: 9783 093e 701d 433d 1c02 a13d 6d5a 60bd
000001c0: 0135 86bd 0b95 be3d 4a69 13bc f8f3 8d3c
000001d0: 74e8 153d 3f2e c33c 5241 a4bd 34ba f3bd
000001e0: f239 2a3e 1ffc 813d f0b1 173e 4652 a93d
000001f0: 3bee 863d fcfb 793d cbf5 833d 6115 2cbd
00000200: f2e7 b73c ca67 9c3c 9249 fabd 3637 e23c
00000210: 9f19 673d b96a 36bd 6b6c 803c 8c81 0d3e
00000220: 376d 9ebc ab9c ca3c 647d 403e f29f 4cbd
00000230: ccec 303d 2628 0bbe fc76 7f3d cc01 9dbd
00000240: 38f8 acbd 0bfe f1bc 7161 333d 6987 f73b
00000250: 3aca 8cbd 430a 35bc b44b b23c 348c f53d
00000260: e920 fdbb 2b79 71bd efbc d5bd 6b0b 54bd
00000270: d0ae dfbc 05bc 94bd 1d19 97bd cf85 ec3c
00000280: dec2 043d f0ea 39bd 723a e53d aae0 debd
00000290: 2167 94bc 0608 9d3b fd22 03bd 782c dabd
000002a0: d2e1 ea3c 910a f1bd 3107 043d e55b 633d
000002b0: 0fc0 a63d bee1 74bc 2b7b 3a3e 57c8 aebd
000002c0: 9586 4e3d 0f20 f8bc 66c1 c6bd c2b0 923d
000002d0: 51b0 8dbc 9972 2b3d c4a8 d33b 40eb fdbd
000002e0: 3b65 9cbc 0058 003d ce94 20bd bd6c b1bd
000002f0: 2c5e 3bbc a207 113d 52e2 4ebd a3ae c53d
00000300: d94e c8bd fbeb c7bc 855e e03d a43c d8bd
00000310: 13e9 753d a535 c83d 586b eabd bc17 0abd

h2o.bias f4 [2]
0.059396308 -0.03048323
00000000: 8b49 733d f7b7 f9bc
