log/20241210_1742_20/SRNN.pth (torch, 52174 bytes, 10 tensors)

initial_h f4 [12, 50]
-1.5346283 -0.07582351 -1.2622148 0.31453612 0.39781263 -0.10632429 -0.3704245 0.5326781
-0.7498534 -0.7099994 0.27533442 0.024137111 1.0464616 1.8290498 -0.8430567 -0.032135375
-0.10457137 1.1121502 -0.7992515 1.0615053 1.0836946 0.7342624 -0.82824266 -0.6199327
-0.8281941 -0.13671331 0.60244435 -0.56516415 0.12987041 -0.3935518 -0.59877115 -1.5270116
-1.9163221 0.0430669 -0.41905105 1.2445525 -0.46078664 1.9758143 0.2641865 0.4866842
0.6618671 -0.88781506 -0.5171156 0.5728289 0.12221074 0.77635866 0.37357065 -0.8742185
-1.1605561 -0.52129006 -0.9025232 0.19766271 -1.203686 0.6312353 0.65105367 0.07624011
0.31323418 0.16519023 -1.7880241 -0.6289104 0.07353663 0.057766546 1.1874297 1.802605
-1.199083 -0.24892706 0.06597863 1.0187777 -1.1001085 0.539608 0.63658756 0.5961877
-0.7258439 0.1425083 -0.9468196 0.044634778 0.12273786 0.11306225 0.09289663 -0.397972
-0.35283655 -1.1040292 -1.5174071 0.08173075 -0.8281244 1.34486 -0.49995473 0.8177542
0.06489344 0.98536325 0.8499778 -1.3341584 -0.680898 -0.06292868 0.15313017 0.70232326
0.87508523 -1.7375662 -0.9138476 -1.2737241 -0.6370336 -0.32604986 -1.3566794 0.29207617
1.4348823 -0.04648141 0.07830089 -1.0470387 -1.1250427 -0.8746134 0.2463608 -0.20878987
1.1291952 1.0468551 -1.0203454 -0.35685295 0.3404171 1.5981395 -0.8378163 0.20029312
0.9687976 0.62644154 -2.043559 0.84751064 -1.0545886 -0.47701946 -0.06304436 0.32895312
-0.31626093 -0.86455464 -0.6762079 -0.8575175 -1.2413818 0.14309373 0.19426006 0.9732673
-0.52607393 0.7456511 0.4334579 0.51175195 0.8989711 -0.6260642 -0.6394778 0.45340487
0.09274942 0.8478866 1.3510311 -1.3190473 -0.45892572 -0.4000936 -1.5340362 0.51108146
-1.331492 0.95667875 0.75754136 -0.076480456 -0.1821457 -0.8451701 -0.008908449 -1.4398319
0.43607932 -0.31576136 1.7355591 2.0277982 -0.43263054 -0.36258632 0.57089776 0.34206146
-2.0999527 0.7247017 0.88862896 1.3850243 -0.5328807 0.31072196 -0.5646249 -0.17719543
0.16054158 0.115207635 -0.44818112 -1.1165045 -1.0978717 -0.3106807 -1.7007087 0.49838272
-0.26912278 1.5552626 -0.38814294 1.3634194 -0.060126677 0.54475623 0.63864225 -0.9025296
0.2787589 0.00683633 0.23883095 0.32751217 0.279477 -1.8255081 -0.5857048 -0.36329618
-1.456237 -0.15124331 -1.0292857 0.13875872 0.117710546 -0.026504377 -0.16444513 0.45873597
-0.86444414 -0.7815865 0.2558122 -0.11322802 1.2487556 1.6063628 -0.8566598 -0.23251498
0.052266005 0.6861569 -0.5736897 0.982745 1.1331378 0.49908528 -1.3282658 -0.6772749
-0.7491523 -0.0586812 0.50974727 -0.4113344 0.11061688 -0.306978 -0.36566478 -1.392633
-2.1663587 -0.019865744 -0.39279312 1.199541 -0.69785416 1.9751654 0.2981553 0.72826797
0.58859503 -0.7029165 -0.6023995 0.8177199 0.1838335 1.2346665 0.43101043 -0.73807216
-1.0038629 -0.43473184 -0.99142283 0.07545642 -1.1482499 0.22939214 0.18762133 0.2059157
00000000: b36e c4bf 5b49 9bbd 4190 a1bf e10a a13e
00000010: 19ae cb3e 8dc0 d9bd 48a8 bdbe 985d 083f
00000020: 64f6 3fbf 85c2 35bf a2f8 8c3e 31bb c53c
00000030: 74f2 853f 4e1e ea3f 90d2 57bf 62a0 03bd
00000040: 8429 d6bd f05a 8e3f bf9b 4cbf 68df 873f
00000050: 81b6 8a3f 9ff8 3b3f b607 54bf e9b3 1ebf
00000060: 8704 54bf 93fe 0bbe cb39 1a3f 99ae 10bf
00000070: c0fc 043e 9f7f c9be 1149 19bf 1e75 c3bf
00000080: 0b4a f5bf eb66 303d dc8d d6be 7f4d 9f3f
00000090: 3aec ebbe 7ce7 fc3f 7443 873e ac2e f93e
000000a0: 1f70 293f d947 63bf b061 04bf eaa4 123f
000000b0: a049 fa3d 71bf 463f a744 bf3e c9cc 5fbf
000000c0: 1a8d 94bf 4473 05bf c30b 67bf 1868 4a3e
000000d0: 6212 9abf a398 213f 74ab 263f c623 9c3d
000000e0: 3b60 a03e a127 293e f9dd e4bf 4600 21bf
000000f0: 5f9a 963d 9d9c 6c3d b2fd 973f c3bb e63f
00000100: 8d7b 99bf bce6 7ebe ce1f 873d 4f67 823f
00000110: 5bd0 8cbf c023 0a3f 67f7 223f c29f 183f
00000120: e8d0 39bf b2ed 113e c562 72bf f5d2 363d
00000130: fd5d fb3d 2e8d e73d 9740 be3d fcc2 cbbe
00000140: fea6 b4be d450 8dbf 653a c2bf 7462 a73d
00000150: f6ff 53bf 5f24 ac3f 11fa ffbe 5758 513f
00000160: dae6 843d c440 7c3f 2598 593f b4c5 aabf
00000170: 554f 2ebf c0e0 80bd 28ce 1c3e 75cb 333f
00000180: 9605 603f 9268 debf ebf1 69bf 6409 a3bf
00000190: a214 23bf 02f0 a6be aca7 adbf 028b 953e
000001a0: 39aa b73f 4a63 3ebd 385c a03d 5d05 86bf
000001b0: 6601 90bf aae6 5fbf 0146 7c3e 03cd 55be
000001c0: 7889 903f 59ff 853f ae9a 82bf 6eb5 b6be
000001d0: 264b ae3e d68f cc3f 217b 56bf a419 4d3e
000001e0: 1f03 783f 795e 203f acc9 02c0 75f6 583f
000001f0: c2fc 86bf e53b f4be 671d 81bd 8b6c a83e
00000200: f4ec a1be 7453 5dbf f61b 2dbf 4486 5bbf
00000210: 99e5 9ebf 2a87 123e 1cec 463e 0c28 793f
00000220: c8ac 06bf fee2 3e3f 32ee dd3e 2d02 033f
00000230: f822 663f be45 20bf d1b4 23bf af24 e83e
00000240: 68f3 bd3d 190f 593f 96ee ac3f 8bd6 a8bf
00000250: 50f8 eabe 11d9 ccbe 4c5b c4bf 3cd6 023f
00000260: 546e aabf e6e8 743f 3bee 413f c9a1 9cbd
00000270: 6784 3abe 115d 58bf bef4 11bc 694c b8bf
00000280: ca45 df3e 79ab a1be cd26 de3f 72c7 0140
00000290: c081 ddbe eaa4 b9be 5b26 123f ae22 af3e
000002a0: a065 06c0 0d86 393f 307d 633f 7a48 b13f
000002b0: df6a 08bf f316 9f3e 428b 10bf b872 35be
000002c0: 0365 243e fbf1 eb3d ff77 e5be 9fe9 8ebf
000002d0: 0f87 8cbf 8a11 9fbe d3b0 d9bf 052c ff3e
000002e0: 76ca 89be d812 c73f acba c6be 8784 ae3f
000002f0: 6447 76bd 2575 0b3f 0f7e 233f 2e0c 67bf
00000300: 7db9 8e3e 4b03 e03b 1a90 743e adaf a73e
00000310: 9c17 8f3e 40aa e9bf c0f0 15bf f501 babe
00000320: f965 babf 87df 1abe a2bf 83bf c416 0e3e
00000330: 3a12 f13d b51f d9bc 4e64 28be 71df ea3e
00000340: 364c 5dbf 0e16 48bf d1f9 823e 18e4 e7bd
00000350: 39d7 9f3f 4c9d cd3f 0f4e 5bbf 6818 6ebe
00000360: e114 563d fba7 2f3f 54dd 12bf 2d95 7b3f
00000370: a90a 913f 1b88 ff3e 9d04 aabf e361 2dbf
00000380: 72c8 3fbf b35b 70bd cc7e 023f 6c9a d2be
00000390: 1a8b e23d 382c 9dbe 6a38 bbbe cc41 b2bf
000003a0: 9fa5 0ac0 7cbd a2bc 2e1c c9be 8f8a 993f
000003b0: 92a6 32bf 38d2 fc3f d0a7 983e c56f 3a3f
000003c0: 2aae 163f 56f2 33bf db36 1abf 1756 513f
000003d0: d93e 3c3e 8d09 9e3f 66ad dc3e 4cf2 3cbf
000003e0: 947e 80bf 2c95 debe e3cd 7dbf e588 9a3d
000003f0: daf9 92bf c6e5 6a3e ce1f 403e 91db 523e

initial_c f4 [12, 50]
-1.6199769 0.6162421 -1.2586604 0.85175323 0.21955338 0.31076905 -0.1681407 -0.30200827
-1.0235693 0.01266818 -0.6921236 -0.85989815 1.618081 0.90835583 -0.9748693 -0.629319
0.62201864 1.5579551 -0.8419162 1.6566572 0.7415767 0.5609152 -0.62180656 0.15972951
-1.9095991 -0.120375074 -0.44354957 0.40711272 0.11248346 -2.6656065 -0.47511 -1.5437129
-1.2866501 0.08036547 -0.6071787 0.7798508 -0.6199477 1.5856056 -0.0029904472 1.1266954
0.49175033 -0.38747865 -0.8317793 0.6082877 -0.9774593 0.4370279 0.6523653 -0.46453774
-1.1451404 -1.1403279 -1.0594243 0.35996917 -2.0906332 0.3140766 1.2579466 0.2729352
-0.2571273 -0.1344167 -0.2183962 -0.92171586 -0.20900884 -0.11935038 1.9922732 1.1463012
-1.06673 -0.3175947 0.63522553 1.7602993 0.21833152 -0.0049130167 0.054221455 -0.4882918
-0.42784932 -0.21903245 -0.9848227 0.93462694 -0.19967951 0.3749604 1.4655715 0.2473445
-0.8275477 -0.4444696 -1.5098549 0.040610578 0.3564014 1.3459809 -1.1314136 1.5528481
0.4510732 -0.0945087 1.196835 -0.11237877 -1.0476422 0.14684978 -1.8420522 1.2280892
1.2137998 -1.9290283 -1.687174 -1.1502388 -1.0808766 0.75999606 -2.3168175 1.4019186
1.6426316 0.5722951 -0.8805646 0.038080372 -0.080257386 0.55766004 0.23745869 -0.36845338
1.5671009 1.525907 -1.052256 -0.21459778 0.005987085 1.5609223 -0.8395917 0.077645324
-0.72524744 0.0124839535 -0.53115857 0.5405496 -0.76592565 1.0170461 -1.0826586 -0.42016855
0.63853246 0.011731304 -0.19986778 -0.77317846 -0.688428 -0.19142424 0.68895346 1.9166242
-0.67249054 1.4585869 0.5158448 0.91979283 0.6663269 0.34178868 -1.4669381 0.70557404
-2.3081567 0.9802299 2.106292 -1.0971148 0.41613 -0.6621017 0.07891492 0.7494843
-1.1199359 1.2925376 1.093781 0.9125789 -0.7548146 -0.5105663 0.23704422 0.42104954
0.37904108 -0.5713151 1.9966697 1.3149347 -0.30003873 -1.0614692 0.652918 -0.4341413
-0.6944949 -0.9583914 0.84315544 0.06861646 0.92855 0.22833225 0.08686895 1.271777
-0.75747305 0.102535546 1.0811614 -0.42895088 0.2379028 0.35978484 0.011617026 -0.5540814
0.68334126 1.3023715 0.2831127 2.0554364 -0.12910222 -0.28589484 0.6962168 -0.5685285
-1.7888969 -2.0784464 -3.3242455 1.0551752 0.5343943 0.2478332 -1.4640883 0.022382658
-1.9142088 0.9673293 -0.6806979 0.54924834 0.7888878 0.5094247 -0.63295937 -0.30471644
-0.99313927 0.06624279 -0.051483683 -0.5860169 1.1190073 1.2043619 -0.52777344 -0.74855924
0.3949678 1.5943518 -1.2370456 1.0735765 0.18965827 0.044435248 -0.58815706 -0.07230263
-2.0446668 -0.32930893 -0.29541084 -0.30170563 0.2073398 -2.322846 -0.06588621 -1.9669703
-1.2784698 -0.06799071 -0.22552405 0.6994496 -0.3563365 2.263345 -0.06162787 0.87298775
0.6657487 -0.121976696 -1.050265 0.59059155 -0.6754595 0.9943316 1.0633491 -0.42664582
-0.8941981 -1.0761821 -0.8226022 0.5250938 -1.012308 0.0100537855 1.3617046 0.38661772
00000000: 675b cfbf 0bc2 1d3f c91b a1bf 800c 5a3f
00000010: 9ad2 603e 1f1d 9f3e 132d 2cbe d4a0 9abe
00000020: 5204 83bf 338e 4f3c 032f 31bf 4922 5cbf
00000030: 471d cf3f 028a 683f 0991 79bf 0d1b 21bf
00000040: 9d3c 1f3f 136b c73f d287 57bf 580d d43f
00000050: f8d7 3d3f 2398 0f3f b72e 1fbf 2290 233e
00000060: be6d f4bf 3587 f6bd ee18 e3be 1471 d03e
00000070: ba5d e63d 4c99 2ac0 9e41 f3be 6298 c5bf
00000080: f3b0 a4bf a796 a43d 1070 1bbf 4da4 473f
00000090: e4b4 1ebf 20f5 ca3f 61fb 43bb 8e37 903f
000000a0: b3c6 fb3e 9a63 c6be 7def 54bf beb8 1b3f
000000b0: c63a 7abf 1fc2 df3e 6a01 273f e4d7 edbe
000000c0: f693 92bf 44f6 91bf 379b 87bf e14d b83e
000000d0: efcc 05c0 a6ce a03e 6504 a13f 2abe 8b3e
000000e0: 31a6 83be 88a4 09be 41a3 5fbe 92f5 6bbf
000000f0: 6a06 56be f96d f4bd cf02 ff3f ffb9 923f
00000100: 9c8a 88bf c69b a2be 249e 223f 7d51 e13f
00000110: 4c92 5f3e 5ffd a0bb 5117 5e3d 6201 fabe
00000120: 110f dbbe 0b4a 60be 571d 7cbf b643 6f3f
00000130: c978 4cbe cffa bf3e d997 bb3f e047 7d3e
00000140: 2bda 53bf 8591 e3be ed42 c1bf 4757 263d
00000150: 3f7a b63e 1a49 ac3f 29d2 90bf bac3 c63f
00000160: 11f3 e63e c78d c1bd e431 993f d726 e6bd
00000170: 2419 86bf ca5f 163e 5ec8 ebbf 0732 9d3f
00000180: cb5d 9b3f 66ea f6bf 51f5 d7bf 063b 93bf
00000190: 2a5a 8abf 1a8f 423f bd46 14c0 1272 b33f
000001a0: c141 d23f ef81 123f ae6c 61bf 2afa 1b3d
000001b0: fc5d a4bd cfc2 0e3f 5f28 733e eca5 bcbe
000001c0: c396 c83f ec50 c33f 53b0 86bf 85bf 5bbe
000001d0: 4f2f c43b 4dcc c73f 7bef 56bf 8304 9f3d
000001e0: d1a9 39bf 7f89 4c3c 02fa 07bf 7561 0a3f
000001f0: b413 44bf 912e 823f 8f94 8abf 5520 d7be
00000200: dd76 233f a834 403c 24aa 4cbe 06ef 45bf
00000210: d13c 30bf b704 44be 415f 303f f153 f53f
00000220: 5728 2cbf fab2 ba3f 680e 043f 8b77 6b3f
00000230: 6694 2a3f edfe ae3e a1c4 bbbf 80a0 343f
00000240: d7b8 13c0 59f0 7a3f 7dcd 0640 426e 8cbf
00000250: fe0e d53e 7f7f 29bf 259e a13d 34de 3f3f
00000260: 0f5a 8fbf df71 a53f 0401 8c3f c59e 693f
00000270: 883b 41bf 79b4 02bf b8bb 723e ce93 d73e
00000280: ac11 c23e b541 12bf df92 ff3f c84f a83f
00000290: ad9e 99be 39de 87bf a225 273f c547 debe
000002a0: 6bca 31bf 2459 75bf 09d9 573f c986 8c3d
000002b0: 74b5 6d3f eecf 693e 59e8 b13d 97c9 a23f
000002c0: c1e9 41bf 28fe d13d 7f63 8a3f 739f dbbe
000002d0: cb9c 733e b835 b83e 5755 3e3c 47d8 0dbf
000002e0: 74ef 2e3f 1cb4 a63f 26f4 903e 458c 0340
000002f0: 5f33 04be cf60 92be 443b 323f 158b 11bf
00000300: 93fa e4bf 4405 05c0 70c0 54c0 fb0f 873f
00000310: 11ce 083f fdc7 7d3e 3f67 bbbf d65b b73c
00000320: cb04 f5bf e5a2 773f 3842 2ebf 8a9b 0c3f
00000330: 8df4 493f a869 023f a009 22bf cb03 9cbe
00000340: 603e 7ebf 4daa 873d 8ee0 52bd 3405 16bf
00000350: a23b 8f3f 8828 9a3f 291c 07bf 94a1 3fbf
00000360: 3839 ca3e b813 cc3f 8357 9ebf f46a 893f
00000370: c735 423e bc01 363d 7691 16bf 6713 94bd
00000380: d2db 02c0 2e9b a8be 1740 97be 2979 9abe
00000390: e250 543e 82a9 14c0 59ef 86bd afc5 fbbf
000003a0: e6a4 a3bf b73e 8bbd c7ef 66be 210f 333f
000003b0: bd71 b6be a5da 1040 816d 7cbd 207c 5f3f
000003c0: 826e 2a3f ebce f9bd 156f 86bf 0231 173f
000003d0: eaea 2cbf 848c 7e3f d31b 883f 5271 dabe
000003e0: 2bea 64bf 56c0 89bf 0f96 52bf 8c6c 063f
000003f0: 4f93 81bf a2b8 243c 564c ae3f c2f2 c53e

h2h.weight_ih f4 [200, 2]
-0.026656494 0.033964828 0.35700342 -0.3710633 0.12991153 0.2781535 0.3272996 0.2588533
-0.4423684 -0.3695456 0.17536536 0.25300613 0.1042964 0.0905902 0.1886881 -0.46828574
-0.15439004 0.040684227 -0.17819948 -0.025166938 0.07887203 -0.2586188 -0.10211719 0.14748967
0.05394519 0.11531759 -0.12177434 -0.0032189784 0.052568194 -0.03273433 0.09640151 -0.24815366
-0.032590967 -0.052569482 0.06912016 0.032377854 -0.10266034 -0.06750232 0.070316136 0.14948525
-0.0075698174 0.2924602 -0.061153065 0.004612217 -0.068733506 0.035019677 0.1877653 0.41211915
0.22618017 -0.30807257 0.19865023 0.15296713 -0.30323943 -0.14206776 0.0762657 0.44480547
-0.2783672 0.08194798 0.11296654 -0.27722627 0.26381046 -0.26897737 0.16206302 -0.083784305
-0.037976187 0.051756367 -0.08511972 -0.10671452 0.05206039 -0.10673881 0.07682673 0.087206624
0.1522917 0.17358185 0.1290171 0.09036172 0.008748955 0.13091236 -0.025239829 0.40490478
-0.0014432253 0.06678619 0.23473562 0.2472188 0.14617425 0.24387294 -0.23398162 0.044263527
-0.18302555 -0.058586475 0.04247689 0.055439807 -0.017430432 0.11223874 -0.12506656 -0.16576143
0.16707852 0.26082626 0.105419286 0.04680588 -0.15530027 0.17027189 0.43054008 -0.24035767
0.14604308 0.19790375 0.39004093 0.40179673 -0.5801586 -0.18192926 0.21436775 0.1076748
-0.05343996 -0.06236426 0.21296076 -0.18301757 -0.0033892898 0.030385163 0.1837186 0.071543954
0.05013053 -0.064723656 0.0027253975 0.17935862 0.16912253 0.14394912 -0.020277066 0.016137004
-0.036618866 0.12643397 -0.036591284 -0.30556983 0.13965908 0.18317223 0.19817261 0.19490315
0.11219212 -0.10768084 0.014540558 0.037347607 0.22286817 0.3460697 0.25707364 -0.04174691
-0.13674295 -0.015395598 0.43354723 0.31709996 0.032695286 -0.2901613 0.3030304 0.3124011
-0.0926046 0.3476885 0.014750027 -0.35009304 -0.18053773 0.115833975 0.21425296 0.017836252
0.25016034 -0.07382517 -0.09142991 -0.08399704 0.09230958 -0.14813598 0.19477084 -0.05324587
0.09301285 0.21867044 0.13613635 0.13066779 0.18971094 0.061808467 0.043494567 0.19528879
-0.042966314 -0.060025647 -0.16918285 -0.21980879 -0.03317808 0.008993046 -0.38052583 0.49312705
0.07572196 0.20856896 0.15792383 -0.2160125 -0.32508585 -0.22591755 0.16533571 0.06564665
0.12289246 0.21385013 -0.06770566 0.17072003 -0.1276412 0.12095147 0.05233674 0.21396837
-0.011777005 -0.034573738 0.11972877 -0.17171794 0.085065134 -0.18184802 0.14857973 0.150789
-0.27309132 0.08015096 0.30763492 0.33840993 -0.2928736 0.10471071 0.37736788 -0.51027805
0.09161037 -0.066035025 0.15932986 0.23273374 0.009923907 -0.08566849 -0.017580653 -0.25624648
0.16945155 0.078544244 -0.2106425 0.103442974 -0.092795655 -0.11419727 -0.11179996 0.04090395
-0.29730585 0.2670313 0.13645282 -0.025941407 -0.18584609 -0.0078902 0.06468316 0.033181693
-0.01374703 0.044250388 0.23261246 0.024882957 0.009902816 -0.24867712 -0.17321411 -0.19604865
-0.07193971 -0.15256606 -0.119176604 -0.09295849 -0.3306782 0.49942994 -0.021940347 0.3780839
00000000: b85e dabc b41e 0b3d 27c9 b63e 02fc bdbe
00000010: 8707 053e 236a 8e3e d093 a73e 6b88 843e
00000020: 1c7e e2be 1535 bdbe fa92 333e 058a 813e
00000030: 5a99 d53d 5b87 b93d 7437 413e 26c3 efbe
00000040: 6c18 1ebe 81a4 263d ed79 36be e52a cebc
00000050: a987 a13d af69 84be d122 d1bd 8807 173e
00000060: a2f5 5c3d a12b ec3d d364 f9bd 7ff5 52bb
00000070: bf51 573d 6f14 06bd 286e c53d fe1b 7ebe
00000080: 1b7e 05bd 1953 57bd df8e 8d3d a49e 043d
00000090: 963f d2bd a83e 8abd e801 903d a912 193e
000000a0: 3b0c f8bb 58bd 953e a37b 7abd 1522 973b
000000b0: 27c4 8cbd cb70 0f3d 8c45 403e 4801 d33e
000000c0: c69b 673e b0bb 9dbe f76a 4b3e 6aa3 1c3e
000000d0: 3342 9bbe 367a 11be 3131 9c3d 8bbd e33e
000000e0: 2586 8ebe 58d4 a73d 005b e73d 9af0 8dbe
000000f0: 2a12 873e 67b7 89be d9f3 253e 1b97 abbd
00000100: eb8c 1bbd 7cfe 533d 3f53 aebd 248d dabd
00000110: 473d 553d e199 dabd 5557 9d3d 6399 b23d
00000120: 5bf2 1b3e 71bf 313e 0f1d 043e 910f b93d
00000130: c757 0f3c e40d 063e c2c3 cebc ae4f cf3e
00000140: 9b2a bdba 33c7 883d 895e 703e ed26 7d3e
00000150: b4ae 153e d4b9 793e e198 6fbe ac4d 353d
00000160: 0d6b 3bbe 5ff8 6fbd 3ffc 2d3d da14 633d
00000170: 44ca 8ebc 6ddd e53d 7311 00be 5dbd 29be
00000180: a216 2b3e 058b 853e 11e6 d73d 86b7 3f3d
00000190: 0907 1fbe c15b 2e3e c06f dc3e 5220 76be
000001a0: 518c 153e 48a7 4a3e 72b3 c73e 4db8 cd3e
000001b0: 4685 14bf aa4b 3abe 3883 5b3e 9b84 dc3d
000001c0: dce3 5abd ab71 7fbd 6312 5a3e f568 3bbe
000001d0: d91e 5ebb 4eea f83c bb20 3c3e a385 923d
000001e0: ac55 4d3d d68d 84bd 959c 323b c9a9 373e
000001f0: 752e 2d3e 6667 133e 171c a6bc c031 843c
00000200: aafd 15bd e877 013e bee0 15bd a673 9cbe
00000210: ca02 0f3e 8091 3b3e c3ed 4a3e b194 473e
00000220: fbc4 e53d c687 dcbd 853b 6e3c cef9 183d
00000230: 8e37 643e 0c30 b13e 289f 833e cffe 2abd
00000240: 5806 0cbe d13d 7cbc e7f9 dd3e ed5a a23e
00000250: 7eeb 053d 0690 94be cd26 9b3e 09f3 9f3e
00000260: 7ba7 bdbd 3a04 b23e 19aa 713c 653f b3be
00000270: e2de 38be 5d3a ed3d 2165 5b3e 551d 923c
00000280: 0415 803e a731 97bd 9b3f bbbd a406 acbd
00000290: ce0c bd3d f5b0 17be 0272 473e 5718 5abd
000002a0: 857d be3d 25eb 5f3e 5467 0b3e c7cd 053e
000002b0: 9643 423e e02a 7d3d 5c27 323d c9f9 473e
000002c0: 72fd 2fbd 74dd 75bd 453e 2dbe 8e15 61be
000002d0: bde5 07bd 9257 133c 48d4 c2be 267b fc3e
000002e0: 1d14 9b3d 1a93 553e c9b6 213e 6132 5dbe
000002f0: a771 a6be ee56 67be c44d 293e c071 863d
00000300: 0baf fb3d 87fb 5a3e 44a9 8abd 3bd1 2e3e
00000310: 60b4 02be 68b5 f73d 0d5f 563d 861a 5b3e
00000320: 57f4 40bc 319d 0dbd 5b34 f53d d4d6 2fbe
00000330: a136 ae3d 5e36 3abe 4925 183e 6e68 1a3e
00000340: a0d2 8bbe 3026 a43d 5382 9d3e 1144 ad3e
00000350: 87f3 95be 9272 d63d 5d36 c13e 95a1 02bf
00000360: 389e bb3d 5f3d 87bd 5e27 233e c151 6e3e
00000370: e297 223c f672 afbd 4d05 90bc bd32 83be
00000380: b584 2d3e cedb a03d abb2 57be e9d9 d33d
00000390: a60b bebd 42e0 e9bd 61f7 e4bd e68a 273d
000003a0: 7938 98be 54b8 883e 4aba 0b3e 1383 d4bc
000003b0: 704e 3ebe e645 01bc 9b78 843d 87e9 073d
000003c0: 393b 61bc e53f 353d f631 6e3e 58d7 cb3c
000003d0: 6c3f 223c 37a5 7ebe 0a5f 31be fac0 48be
000003e0: 2055 93bd 473a 1cbe dd12 f4bd 0561 bebd
000003f0: a74e a9be 48b5 ff3e 3ebc b3bc 3794 c13e

h2h.weight_hh f4 [200, 50]
-0.1022787 0.24534489 -0.07163784 -0.12652604 0.026527507 -0.07515672 0.2891595 0.040808193
-0.057426814 -0.102614634 -0.1254444 0.07879722 -0.003639458 -0.025727589 0.034434415 0.012913127
-0.1671351 -0.07612051 0.17405635 0.33736396 0.030073805 0.11796892 -0.13638851 0.08544015
0.081180766 -0.20336145 0.30903706 0.09086702 0.047250174 -0.10931854 -0.16003257 -0.11143153
0.0080465 -0.21837111 -0.22926417 0.08958336 0.036101427 -0.11896835 0.07128738 -0.1196742
0.051669847 0.04969056 0.13536696 -0.06009593 0.11136004 -0.061505165 -0.12239878 -0.045699038
0.027385227 -0.013017547 -0.14041509 0.019025877 0.03301906 0.020272108 -0.03672164 0.071565956
-0.01501313 -0.20036979 0.10459307 -0.019883407 0.028405739 -0.024964496 0.07721214 -0.09701869
0.12491202 -0.115262754 -0.08807615 0.020369288 0.070451975 0.054787032 -0.095895365 -0.032961886
0.09780796 -0.062049106 0.11759123 0.009009216 0.06309396 -0.21257614 0.0072294534 0.050154265
0.004540999 -0.022135913 -0.067496076 -0.1394189 -0.06656044 0.053965986 -0.06736461 -0.008275528
-0.09806859 0.075874165 -0.0161598 -0.055569194 -0.09763242 0.11477079 -0.0028867293 0.0049752016
-0.039040018 -0.06175059 -0.09447414 -0.027025973 -0.18313731 0.14270931 -0.29426673 0.18490767
0.12035019 0.2432936 -0.144136 -0.3361403 -0.09764259 0.1391192 0.213183 -0.30091366
0.22271411 0.13398087 -0.27317995 -0.26962492 -0.07280132 0.05335559 -0.36047176 0.1036619
0.20570835 0.14884706 -0.14252447 -0.28533542 -0.18559627 0.18226644 0.21505678 -0.03786342
0.005268392 -0.115891226 -0.08904242 0.05721603 -0.4196068 -0.10644267 -0.18661869 0.36652723
-0.32608536 0.33647317 0.11290327 0.1033097 0.29055786 -0.12110213 -0.2937323 0.07801703
-0.048379064 0.079320975 0.21116039 -0.09170707 -0.14839993 -0.1412992 -0.097985536 -0.019748477
0.048768234 -0.007822102 0.05170304 0.44020367 0.036776945 -0.049116105 0.0062356833 -0.14442897
0.023606062 0.0061355243 -0.069478 0.041456256 0.11092664 -0.045515582 0.090263106 0.103618614
0.028632425 0.16453457 -0.013996049 -0.08384267 0.022065863 -0.09098739 0.0007760639 -0.08134598
-0.12917659 0.012247735 0.0467196 -0.15299976 0.2053553 -0.006910032 -0.0650826 0.25873944
0.113558516 0.083827555 -0.10858764 -0.08243748 -0.08861631 0.033450846 0.12759775 0.0040146257
-0.115676545 0.15762827 0.009431803 -0.09045636 -0.0011906734 0.13897423 -0.11107358 -0.111297205
0.02717131 -0.057488225 0.06811789 -0.054142565 0.21522933 -0.32708576 -0.13474335 -0.23474827
0.027640956 -0.12451698 0.13546002 -0.12234215 0.0037870554 0.09985492 -0.0747521 0.033865906
0.33621508 -0.09404623 -0.036370814 -0.22809616 -0.13029304 -0.001587222 -0.06000093 -0.15970942
0.07804678 0.010769418 -0.053375516 -0.32957274 0.11498819 0.16801384 -0.024718106 -0.025978627
-0.08000404 0.15035382 0.1271165 -0.023536913 -0.037896104 -0.14171848 0.10943681 0.0063662957
-0.0123334825 0.016850332 -0.12012182 -0.13623153 -0.011805733 0.07169311 -0.16404971 0.06389133
0.036165517 0.0020961196 0.087901406 0.13168041 -0.07114529 0.037450604 0.0022648643 0.26029816
00000000: 7f77 d1bd b13b 7b3e dcb6 92bd 0b90 01be
00000010: 3750 d93c c4eb 99bd b70c 943e 7e26 273d
00000020: 6138 6bbd 9f27 d2bd 7f74 00be 7060 a13d
00000030: f983 6ebb aac2 d2bc 1a0b 0d3d 9591 533c
00000040: 7725 2bbe 12e5 9bbd d43b 323e f8ba ac3e
00000050: 575d f63c b099 f13d 6ea9 0bbe 3ffb ae3d
00000060: 1a42 a63d fc3d 50be 1b3a 9e3e 7d18 ba3d
00000070: 6689 413d 66e2 dfbd 94df 23be 3736 e4bd
00000080: 78d5 033c ad9c 5fbe 3ac4 6abe 7b77 b73d
00000090: 17df 133d aea5 f3bd 1eff 913d bf17 f5bd
000000a0: c3a3 533d 5488 4b3d a39d 0a3e 2627 76bd
000000b0: bc10 e43d d7ec 7bbd 36ac fabd ea2e 3bbd
000000c0: fc56 e03c 8d47 55bc f9c8 0fbe 28dc 9b3c
000000d0: fe3e 073d b111 a63c 6e69 16bd 2c91 923d
000000e0: a2f9 75bc bd2d 4dbe e434 d63d 87e2 a2bc
000000f0: 27b3 e83c 5882 ccbc 6621 9e3d bcb1 c6bd
00000100: e0d1 ff3d e10e ecbd 4561 b4bd 7edd a63c
00000110: 2049 903d 5e68 603d ca64 c4bd 0b03 07bd
00000120: 8a4f c83d 3427 7ebd acd3 f03d 649b 133c
00000130: 6837 813d 8fad 59be 0de5 ec3b 8f6e 4d3d
00000140: a9cc 943b 6056 b5bc 623b 8abd d4c3 0ebe
00000150: d750 88bd 700b 5d3d 75f6 89bd 1596 07bc
00000160: 2fd8 c8bd ea63 9b3d 8f61 84bc 869c 63bd
00000170: 82f3 c7bd f30c eb3d 482f 3dbb 0407 a33b
00000180: 6de8 1fbd 30ee 7cbd a87b c1bd 9365 ddbc
00000190: 5988 3bbe 6422 123e 21aa 96be 7058 3d3e
000001a0: 297a f63d f521 793e 6398 13be 951a acbe
000001b0: d7f8 c7bd 4375 0e3e a54c 5a3e 5b11 9abe
000001c0: 2b0f 643e 4832 093e 3ede 8bbe 470c 8abe
000001d0: dc18 95bd 648b 5a3d c18f b8be b14c d43d
000001e0: 36a5 523e 5d6b 183e eff1 11be 7c17 92be
000001f0: f30c 3ebe 0ea4 3a3e d837 5c3e ac16 1bbd
00000200: 7aa2 ac3b 6158 edbd df5b b6bd 5b5b 6a3d
00000210: b4d6 d6be 9dfe d9bd f818 3fbe 75a9 bb3e
00000220: a9f4 a6be 3646 ac3e d439 e73d 0994 d33d
00000230: 00c4 943e 6504 f8bd 1464 96be 65c7 9f3d
00000240: 2029 46bd 0973 a23d 6e3a 583e ebd0 bbbd
00000250: 27f6 17be bdb0 10be a4ac c8bd 8fc7 a1bc
00000260: 33c1 473d 4628 00bc 91c6 533d 6062 e13e
00000270: 6ca3 163d f82d 49bd b454 cc3b 30e5 13be
00000280: 8061 c13c 820c c93b 7b4a 8ebd 09ce 293d
00000290: 822d e33d 8c6e 3abd dddb b83d ff35 d43d
000002a0: 8c8e ea3c c07b 283e af4f 65bc b5b5 abbd
000002b0: 78c3 b43c 9957 babd c470 4b3a b998 a6bd
000002c0: de46 04be b9aa 483c 0d5d 3f3d f8ab 1cbe
000002d0: a948 523e 8d6d e2bb 074a 85bd 7f79 843e
000002e0: 5e91 e83d c8ad ab3d 3263 debd fbd4 a8bd
000002f0: 787c b5bd c103 093d fca8 023e 1f8d 833b
00000300: d3e7 ecbd 4e69 213e d987 1a3c 2f41 b9bd
00000310: 5f10 9cba 434f 0e3e 8c7a e3bd caef e3bd
00000320: 5e96 de3c c678 6bbd 6481 8b3d 98c4 5dbd
00000330: 1465 5c3e c977 a7be 29fa 09be da61 70be
00000340: 496f e23c c202 ffbd 08b6 0a3e 858e fabd
00000350: 3f30 783b bc80 cc3d a117 99bd fab6 0a3d
00000360: 6224 ac3e 4f9b c0bd 90f9 14bd 0a92 69be
00000370: 8a6b 05be 550a d0ba 89c3 75bd de8a 23be
00000380: fdd6 9f3d 3772 303c 49a0 5abd c2bd a8be
00000390: ee7e eb3d d20b 2c3e a07d cabc 21d1 d4bc
000003a0: 28d9 a3bd 5af6 193e d42a 023e 7cd0 c0bc
000003b0: f238 1bbd a61e 11be 6820 e03d 5c9c d03b
000003c0: 6012 4abc b509 8a3c 6e02 f6bd 4780 0bbe
000003d0: d56c 41bc d6d3 923d a6fc 27be 75d9 823d
000003e0: 4b22 143d 0d5f 093b a705 b43d 3bd7 063e
000003f0: 9fb4 91bd ce65 193d 1e6e 143b cd45 853e

h2h.bias_ih f4 [200]
-0.004380295 -0.083318055 0.08104405 0.05101657 0.11494066 -0.0979763 0.064221136 -0.049531955
0.026401125 0.09774302 -0.07342485 0.05621929 0.17883462 0.1451606 -0.015422064 0.18867064
0.058242522 0.031740896 0.164602 -0.027985144 0.10388788 0.17007072 0.06358203 0.001995078
0.0062422086 0.108195744 0.12728539 0.19558893 -0.08190494 -0.20530972 -0.017364055 0.059248038
0.110362045 -0.02796557 -0.022176238 0.03771441 0.1238452 0.018841092 -0.0512088 0.23627113
0.16590996 -0.06732353 0.23909926 -0.050007347 0.11101581 0.13750722 0.027201869 -0.15273711
0.01337123 0.09924403 0.08040541 0.13824397 0.2820854 0.094887584 0.10801067 0.102965936
0.112103425 -0.05530847 0.07597664 0.080182776 0.00936064 -0.023145307 0.26337457 0.117889516
0.1862569 0.10384664 0.013083119 0.17699404 0.20744842 0.045355536 0.23851348 -0.013847259
0.17055129 0.011295268 0.0066222656 -0.08591153 -0.0007123037 0.03316032 0.08350993 0.01949567
-0.03683137 -0.04585135 -0.024931673 0.13144854 0.17246248 -0.06795809 0.11219167 0.07433686
0.071479045 -0.20799899 0.17019743 0.06516689 0.25043583 0.18449034 0.07893206 0.21274136
-0.011045858 -0.021064864 0.10455751 0.22087727 0.008145944 -0.0508917 -0.17758788 0.039917186
-0.0317012 -0.013979569 -0.13130996 0.085196555 -0.0425989 0.01930039 0.1316414 -0.07772822
0.18764398 0.12345689 0.016757665 0.07467879 0.11856695 0.07965135 0.054769628 -0.0025636943
0.22934125 0.10748541 -0.036721904 0.024061123 -0.14859846 0.12050854 0.06528202 -0.06697626
0.08309649 -0.045724843 0.012408156 0.07967294 -0.16360979 -0.0995738 0.13481921 0.13913776
-0.059142396 0.17474768 0.05200008 0.038718186 0.09062689 -0.15688415 -0.115483105 -0.06385883
0.037982687 0.04364192 0.02110365 -0.08167892 -0.05908263 -0.12055608 -0.11704243 0.123828016
-0.056084797 0.015297366 0.015179383 0.050890215 0.09734251 0.118129075 0.07694142 0.1197591
0.13138364 0.017329631 0.16486923 0.12688671 0.10091657 0.05118348 0.20082033 -0.11232162
0.15575808 0.02949442 0.13559875 0.07024594 -0.10862689 0.17826615 -0.09017665 0.059166525
-0.03398682 0.19784494 0.010886049 0.06762251 0.33308542 0.02104257 0.17138563 0.07195566
-0.044276435 -0.04482178 0.042948734 -0.01902245 -0.09466771 0.013797303 -0.10641403 0.11762619
0.008495913 0.04645297 0.059494253 0.13673164 0.18385643 0.10027683 0.0065948484 0.21176328
00000000: 9488 8fbb a8a2 aabd 6cfa a53d c0f6 503d
00000010: 0266 eb3d cca7 c8bd 5f86 833d 05e2 4abd
00000020: 2c47 d83c 7e2d c83d c55f 96bd 3346 663d
00000030: 6c20 373e fba4 143e d3ac 7cbc e032 413e
00000040: b68f 6e3d be02 023d 6d8d 283e 1a41 e5bc
00000050: 2bc3 d43d 0527 2e3e 4c37 823d dbbf 023b
00000060: 718b cc3b bb95 dd3d 1a57 023e 7748 483e
00000070: c7bd a7bd b63c 52be 103f 8ebc 12ae 723d
00000080: 7f05 e23d 0d18 e5bc f1aa b5bc 6d7a 1a3d
00000090: 8da2 fd3d a258 9a3c 52c0 51bd 0ff1 713e
000000a0: 4de4 293e ebe0 89bd 70d6 743e 81d4 4cbd
000000b0: 425c e33d b1ce 0c3e 74d6 de3c 1e67 1cbe
000000c0: 0113 5b3c 7440 cb3d 97ab a43d d48f 0d3e
000000d0: 7f6d 903e 6c54 c23d b334 dd3d cedf d23d
000000e0: 7b96 e53d 228b 62bd a499 9b3d de36 a43d
000000f0: 5f5d 193c 3a9b bdbc 08d9 863e 0f70 f13d
00000100: 21ba 3e3e 8cad d43d 945a 563c ed3d 353e
00000110: 5c6d 543e bac6 393d e13c 743e 9ddf 62bc
00000120: ffa4 2e3e ca0f 393c 97ff d83b 62f2 afbd
00000130: e4b9 3aba 1ed3 073d 4107 ab3d 62b5 9f3c
00000140: 7edc 16bd a0ce 3bbd 823d ccbc 729a 063e
00000150: 019a 303e 9c2d 8bbd bfc4 e53d ec3d 983d
00000160: 9b63 923d b0fd 54be 3c48 2e3e 3876 853d
00000170: 2039 803e 09eb 3c3e 22a7 a13d dfd8 593e
00000180: b0f9 34bc 3990 acbc 3f22 d63d a72d 623e
00000190: 9176 053c d173 50bd 99d9 35be 3480 233d
000001a0: 1ed9 01bd 900a 65bc 1e76 06be 887b ae3d
000001b0: 2f7c 2ebd da1b 9e3c 01cd 063e f92f 9fbd
000001c0: be25 403e f7d6 fc3d 5f47 893c 32f1 983d
000001d0: 3bd3 f23d 3f20 a33d 1e56 603d a703 28bb
000001e0: 6fd8 6a3e 5021 dc3d b569 16bd d51b c53c
000001f0: 322a 18be 2ecd f63d 94b2 853d d92a 89bd
00000200: 7e2e aa3d f949 3bbd 944b 4b3c 912b a33d
00000210: 5389 27be 59ed cbbd 0c0e 0a3e 217a 0e3e
00000220: 4c3f 72bd 0ef1 323e 09fe 543d f696 1e3d
00000230: 979a b93d 3da6 20be 6882 ecbd 6bc8 82bd
00000240: bc93 1b3d dfc1 323d 90e1 ac3c 4747 a7bd
00000250: a100 72bd 1be6 f6bd f1b3 efbd 8b99 fd3d
00000260: 2cb9 65bd cea1 7a3c f2b2 783c 4272 503d
00000270: 835b c73d a8ed f13d 7793 9d3d 4244 f53d
00000280: 6f89 063e dff6 8d3c 7bd3 283e 97ee 013e
00000290: 59ad ce3d c5a5 513d d8a3 4d3e e108 e6bd
000002a0: 0c7f 1f3e 489e f13c 66da 0a3e 1add 8f3d
000002b0: c677 debd 678b 363e 89ae b8bd 9958 723d
000002c0: c435 0bbd dd97 4a3e 665b 323c ac7d 8a3d
000002d0: 2c8a aa3e 7861 ac3c b77f 2f3e 7d5d 933d
000002e0: 355b 35bd 0b97 37bd 03eb 2f3d f8d4 9bbc
000002f0: 25e1 c1bd 150e 623c 99ef d9bd 00e6 f03d
00000300: 7132 0b3c 7845 3e3d 3fb0 733d 6103 0c3e
00000310: dc44 3c3e f05d cd3d 9919 d83b 79d8 583e

h2h.bias_hh f4 [200]
-0.09736523 -0.0059156856 0.28181294 0.020907225 0.0674223 0.037379913 -0.00029116165 0.054725718
0.0825961 -0.08075495 0.017459944 -0.052831244 0.25444767 0.19416662 0.07236786 -0.01219324
-0.07830432 -0.007050042 0.017179284 -0.022555139 0.25650427 0.08480943 -0.09596485 0.15318702
-0.07872223 -0.08826711 0.045942493 -0.056952253 -0.107522584 -0.08955785 0.031586416 -0.010104341
0.17060876 0.0066467063 0.056760076 -0.02230661 0.24976362 0.1721164 0.19374071 0.26882914
0.10186714 0.04898512 0.05101348 0.026719812 -0.114780635 0.2169704 0.15998812 -0.16614857
0.101053976 -0.08665013 0.034928948 -0.07919831 0.19030654 0.12185629 -0.07515652 0.061956793
-0.03875628 -0.043546163 -0.018474752 0.030548165 0.060197465 0.12482819 0.15716441 0.16388696
0.16993214 -0.048212223 0.011526385 0.2918518 0.21042427 0.16364118 0.11500048 0.12197801
0.13841324 -0.03347435 0.023315215 -0.0464804 -0.06335979 0.18872327 0.116292275 0.21693765
-0.024531113 -0.10875203 0.15997152 0.085477285 -0.0062977513 0.006388566 0.24708593 0.23901364
0.02461777 -0.09320918 0.26343173 0.12963217 0.0059097875 0.1311572 -0.040143214 0.15836833
-0.037315324 0.0949653 0.084893815 0.24234094 -0.087738626 -0.048976082 -0.12799463 0.088632695
0.10925894 -0.095747165 0.036435384 -0.008443608 -0.094185576 -0.058288544 -0.04117786 -0.11036604
-0.039481737 0.17187697 -0.08899125 0.028623592 0.022353329 0.15273003 0.0017882863 0.06334327
0.05964039 0.14417987 -0.02331124 -0.070584744 -0.054091107 -0.11043331 0.017848663 -0.07710572
0.10600233 -0.07516668 -0.116037086 0.025066754 -0.16663693 0.031556748 0.09620774 0.16705815
-0.15773457 0.14807919 0.019050011 -0.054941595 -0.065958634 0.057357978 -0.07873604 0.057381593
0.010725764 0.15581948 0.10540437 -0.040992104 -0.042442385 -0.050739758 0.06865393 -0.13453525
0.06546871 0.14449814 0.18567549 0.19673216 0.30300862 0.011069166 0.0023441392 0.17557125
-0.03386935 0.049931694 0.22724815 0.094086856 0.029953673 0.13551746 0.051804394 0.057646435
0.122642696 0.062245928 0.11128543 0.086936146 0.049795378 0.16394576 0.0149455955 -0.0419078
-0.023875145 0.09545596 0.2027507 0.013186489 0.14538117 0.12173321 0.1629862 0.02648838
0.11055391 0.030315917 0.0014303417 0.20079085 0.05449202 0.11976434 -0.096662275 0.11868897
0.23238578 0.09303102 -0.021822615 0.013527893 0.19310379 0.0028759511 0.14810824 0.22677012
00000000: 6c67 c7bd 5ed8 c1bb c949 903e a145 ab3c
00000010: b414 8a3d ae1b 193d 0ea7 98b9 1328 603d
00000020: 2528 a93d da62 a5bd 2808 8f3c 9365 58bd
00000030: f746 823e 9dd3 463e 9a35 943d 28c6 47bc
00000040: 045e a0bd 0a04 e7bb 92bb 8c3c 8ec5 b8bc
00000050: 8754 833e 91b0 ad3d 3889 c4bd 0fdd 1c3e
00000060: 1f39 a1bd 63c5 b4bd 322e 3c3d c446 69bd
00000070: cd34 dcbd 1b6a b7bd c260 013d ae8c 25bc
00000080: 10b4 2e3e 9dcc d93b 417d 683d 5abc b6bc
00000090: 09c2 7f3e 483f 303e f763 463e f9a3 893e
000000a0: b89f d03d 9fa4 483d 83f3 503d 82e3 da3c
000000b0: 1c12 ebbd 7d2d 5e3e edd3 233e da22 2abe
000000c0: 63f5 ce3d a075 b1bd a811 0f3d b932 a2bd
000000d0: b8df 423e ca8f f93d a9eb 99bd 68c6 7d3d
000000e0: e8be 1ebd 765d 32bd 5d58 97bc 2540 fa3c
000000f0: 9e91 763d eca5 ff3d b5ef 203e fcd1 273e
00000100: b102 2e3e 2e7a 45bd 2ad9 3c3c 996d 953e
00000110: 7679 573e 8e91 273e 5f85 eb3d 9bcf f93d
00000120: 33bc 0d3e 661c 09bd 8dff be3c 3b62 3ebd
00000130: c7c2 81bd ac40 413e a52a ee3d e724 5e3e
00000140: 79f5 c8bc 62b9 debd 93cf 233e b70e af3d
00000150: 5e5d cebb 2d57 d13b 1804 7d3e febf 743e
00000160: 35ab c93c 74e4 bebd 86e0 863e 4cbe 043e
00000170: e4a6 c13b 134e 063e 366d 24bd 4f2b 223e
00000180: f4d7 18bd 2b7d c23d cfdc ad3d 3928 783e
00000190: 4fb0 b3bd 259b 48bd 0611 03be 0f85 b53d
000001a0: 27c3 df3d 1717 c4bd 453d 153d 0f57 0abc
000001b0: 5ee4 c0bd f8bf 6ebd 1eaa 28bd 9707 e2bd
000001c0: 9ab7 21bd 8400 303e 0b41 b6bd 067c ea3c
000001d0: 541e b73c 4365 1c3e ee64 ea3a 1eba 813d
000001e0: 7b49 743d e3a3 133e 37f7 bebc bc8e 90bd
000001f0: a38e 5dbd dc2a e2bd 5c37 923c 9be9 9dbd
00000200: c017 d93d fdf0 99bd daa4 edbd cb58 cd3c
00000210: dfa2 2abe a641 013d 9008 c53d 4b11 2b3e
00000220: 2c85 21be 12a2 173e c50e 9c3c 700a 61bd
00000230: 5215 87bd 33f0 6a3d 5c40 a1bd f608 6b3d
00000240: 1dbb 2f3c 248f 1f3e 3fde d73d 56e7 27bd
00000250: 11d8 2dbd 7ed4 4fbd 6f9a 8c3d 9cc3 09be
00000260: 7614 863d 52f7 133e b721 3e3e 2874 493e
00000270: f223 9b3e 725b 353c 21a0 193b f3c8 333e
00000280: 96ba 0abd 2d85 4c3d bdb3 683e 9cb0 c03d
00000290: 6861 f53c 17c5 0a3e d830 543d ab1e 6c3d
000002a0: 182c fb3d 96f5 7e3d 9ee9 e33d 940b b23d
000002b0: 3df6 4b3d 66e1 273e 5fde 743c 83a7 2bbd
000002c0: cf95 c3bc 6a7e c33d e19d 4f3e 250c 583c
000002d0: cdde 143e 434f f93d dbe5 263e 29fe d83c
000002e0: 176a e23d 1659 f83c 4e7a bb3a 1e9c 4d3e
000002f0: 0633 5f3d 0247 f53d dff6 c5bd 3413 f33d
00000300: 8af6 6d3e 0c87 be3d 57c5 b2bc 19a4 5d3c
00000310: 00bd 453e 747a 3c3b b0a9 173e 6d36 683e

h2m.weight f4 [2, 50]
-0.031534877 0.20986126 -0.011989846 0.14564893 -0.28392756 0.40802577 0.062226363 0.44647813
-0.08497797 0.19773704 0.07039661 -0.025436463 0.09757431 0.123053275 0.067968324 -0.044812154
-0.38673115 -0.04405645 0.093161814 0.11377043 0.16757199 -0.05536693 0.06615321 -0.106055744
-0.26242748 0.16686228 -0.25371444 -0.0049161697 0.14639096 0.00845573 -0.058944333 -0.079168394
-0.01935523 -0.32318056 0.03697455 -0.12973794 0.04427464 0.1063818 -0.14100456 0.01821285
0.031198971 0.024611792 -0.03501243 0.080008306 0.10248608 0.05256793 0.057729956 0.017413693
-0.19100454 -0.00083126745 0.10601465 -0.048983846 0.00019151172 0.1549392 -0.11004733 0.5831933
-0.07426564 -0.25042906 0.04510462 0.16512392 -0.06746635 -0.22457528 -0.02258557 -0.09169275
-0.14719526 -0.16124296 0.40778035 0.14699157 -0.08406983 0.13380839 -0.058534313 0.056785367
0.10920967 -0.17022696 0.043296624 0.18000726 0.6589396 -0.06848599 0.16098018 0.0635123
0.040336374 0.13133301 -0.050856646 -0.4519322 0.043994915 -0.032828283 -0.20573108 -0.009099682
0.17758489 0.04652824 0.06877241 -0.0006554648 -0.09449796 0.16273041 0.10892849 0.025306983
-0.06604931 -0.13518307 0.07231587 -0.056459147
00000000: b72a 01bd dfe5 563e 0f71 44bc fe24 153e
00000010: f45e 91be c1e8 d03e 12e1 7e3d c898 e43e
00000020: ee08 aebd 947b 4a3e 192c 903d 2160 d0bc
00000030: 0ad5 c73d 5b03 fc3d fa32 8b3d f38c 37bd
00000040: a001 c6be 8974 34bd 9fcb be3d 7900 e93d
00000050: fe97 2b3e 6fc8 62bd 567b 873d c133 d9bd
00000060: e55c 86be f2dd 2a3e dce6 81be d217 a1bb
00000070: 83e7 153e e789 0a3c 9d6f 71bd 0a23 a2bd
00000080: dc8e 9ebc ec77 a5be a072 173d 06da 04be
00000090: 5359 353d b3de d93d 8063 10be 1d33 953c
000000a0: fc94 ff3c ab9e c93c 3269 0fbd 65db a33d
000000b0: 39e4 d13d 7851 573d 3f76 6c3d 29a7 8e3c
000000c0: b296 43be 6ae9 59ba 351e d93d 49a3 48bd
000000d0: 89d0 4839 62a8 1e3e 7f60 e1bd 284c 153f
000000e0: 9518 98bd 3d38 80be 9fbf 383d 3f16 293e
000000f0: cc2b 8abd 10f7 65be 6005 b9bc 69c9 bbbd
00000100: 5bba 16be e01c 25be 96c8 d03e f584 163e
00000110: ce2c acbd 1105 093e adc1 6fbd c697 683d
00000120: 52a9 df3d fa4f 2ebe cd57 313d d353 383e
00000130: 44b0 283f 6242 8cbd fdd7 243e bd12 823d
00000140: c137 253d 297c 063e 0f4f 50bd a863 e7be
00000150: 0334 343d f376 06bd 2bab 52be d516 15bc
00000160: d0d8 353e 6594 3e3d 8dd8 8c3d 80d3 2bba
00000170: 2588 c1bd cda2 263e e615 df3d 9750 cf3c
00000180: dc44 87bd 6e6d 0abe 581a 943d b541 67bd

h2m.bias f4 [2]
0.08158557 0.06976647
00000000: 5616 a73d b9e1 8e3d

h2v.weight f4 [2, 50]
0.45537683 -0.7839313 0.64601636 -0.49698514 -0.6008814 -0.49982893 1.0016469 -0.64087987
0.44256735 0.11870922 0.16641541 0.13795574 -0.43103248 -0.5513698 0.30981225 0.5300371
0.16755038 -0.2527066 0.22432695 -0.10327039 -0.48706633 -0.18015192 -0.09273637 0.32323706
0.5774159 -0.3408603 0.6871083 0.12701973 -0.43455547 0.74398786 0.097014755 0.73839617
0.40978625 0.107920736 0.63867843 -0.47870362 0.42471144 -0.54255056 -0.19791321 -0.42983952
-0.4212527 0.36190686 0.5289404 -0.26897955 0.5859434 -0.6061481 -0.19525827 0.4146567
0.5797106 0.46509933 0.4429993 -1.0016974 0.39217138 -0.37698996 -0.9766673 -0.5604721
1.1084582 -0.52778435 0.35796633 -0.09780656 0.2521419 0.12844305 -0.4795761 -0.44056892
0.4115377 0.4403462 0.11084118 -0.4239321 0.27935052 -0.090988986 -0.40827325 -0.11372837
-0.24374953 0.28196952 0.4500864 -0.41037327 0.39868304 -0.06232809 -0.29039606 0.6532056
0.05394175 0.74507993 0.32526365 0.14438066 0.49913183 -0.38999298 0.17952937 -0.45342043
-0.2530992 -0.23924902 -0.4630572 0.42074117 0.59707093 -0.43243292 0.65208 -0.36957544
-0.29395822 0.47283408 0.42697996 0.46398988
00000000: 2727 e93e b9af 48bf 5461 253f d674 febe
00000010: 5dd3 19bf 94e9 ffbe f735 803f b410 24bf
00000020: 3098 e23e d21d f33d cd68 2a3e 4544 0d3e
00000030: 4ab0 dcbe 9226 0dbf b69f 9e3e 83b0 073f
00000040: 5492 2b3e c262 81be f7b5 653e 6d7f d3bd
00000050: c260 f9be bf79 38be 91ec bdbd 547f a53e
00000060: 87d1 133f 3e85 aebe 54e6 2f3f 7611 023e
00000070: 0e7e debe fd75 3e3f acaf c63d 8807 3d3f
00000080: 81cf d13e 8c05 dd3d 6e80 233f a418 f5be
00000090: c773 d93e 98e4 0abf c3a9 4abe ed13 dcbe
000000a0: 6fae d7be db4b b93e a368 073f b0b7 89be
000000b0: 6300 163f 862c 1bbf c9f1 47be e24d d43e
000000c0: ea67 143f 8021 ee3e ced0 e23e 9f37 80bf
000000d0: b0ca c83e d404 c1be de06 7abf 197b 0fbf
000000e0: f5e1 8d3f e01c 07bf 5d47 b73e ce4e c8bd
000000f0: be18 813e 9386 033e 008b f5be 4092 e1be
00000100: 12b5 d23e 0f75 e13e b300 e33d a10d d9be
00000110: 0807 8f3e 6f58 babd 3109 d1be 6bea e8bd
00000120: 7a99 79be 4f5e 903e ba71 e63e 721c d2be
00000130: 2f20 cc3e bd4b 7fbd cbae 94be 7b38 273f
00000140: 06f2 5c3d 8fbd 3e3f f588 a63e 86d8 133e
00000150: 358e ff3e 29ad c7be 8cd6 373e b926 e8be
00000160: 3896 81be b2fd 74be d515 edbe 636b d73e
00000170: a4d9 183f d967 ddbe b7ee 263f fe38 bdbe
00000180: b181 96be 4f17 f23e 1e9d da3e 1590 ed3e

h2v.bias f4 [2]
-0.33698097 -0.45011798
00000000: c588 acbe dd75 e6be
