log/StochasticRNN/StochasticRNN.pth (torch, 181324 bytes, 10 tensors)

initial_h f4 [12, 100]
-0.153283 -0.016905421 0.029087786 0.88482034 -0.28096345 -1.0837526 0.07425683 -0.48267445
-0.309768 0.88056195 -0.26079223 0.5454491 0.34981602 -0.6132931 0.5083833 -0.23135145
0.2870183 -0.1066064 0.6302125 -0.12502101 -0.4363496 0.21476266 0.55756867 -0.008211199
0.13749407 -0.20856404 0.49618784 0.4716322 -0.08277289 0.51501536 0.011212252 0.0034736048
0.48974726 -0.55190265 0.4322177 0.080200404 0.37203842 0.35906744 -0.2963948 -0.012032096
-0.576271 -0.5587856 -0.06960575 0.54567367 -0.29585236 -0.18344533 -0.4735625 0.19817469
-0.0015474203 -0.17578585 -0.2952677 0.24882235 -0.2468514 -0.41038665 -0.21298054 -0.015295346
-1.5967135 0.44542396 1.1265208 0.090470314 0.16739026 0.4804793 -1.0324638 -0.4855978
-0.2567846 0.9063082 -0.03783817 0.657345 0.78453314 0.62055856 -0.494163 -0.5101875
0.15331393 0.37756944 -1.0057977 0.16917588 -0.33729348 0.11712337 -0.4430202 -1.2418878
0.3864422 0.08646286 -0.33298683 -0.13569948 -0.35168406 -0.4338652 0.5522146 0.77205735
0.4589553 0.1485486 -0.2596277 -1.0458386 -0.22857003 0.6948341 0.20295 0.6262497
0.57449865 0.16668169 -0.15963028 -0.032445222 -1.6423819 0.9590442 0.014923321 0.9704269
-0.6508367 -1.1649737 -0.064367786 -0.80215085 0.1260661 0.6346277 -0.37865803 0.29033223
0.796527 -0.5584047 1.3060921 -0.4867271 0.089077935 0.766414 0.9028657 0.33352804
-0.488058 0.6340697 0.3641565 0.008689163 0.37285614 -0.3859749 1.1094391 0.6476663
0.16695185 0.53922665 -0.17220177 -0.5301202 0.56514925 -0.5942251 0.011954821 -0.24042647
0.5911497 0.037250582 -0.45482674 -0.4229114 -0.75276107 0.24854238 -0.22505935 0.43465808
-1.0420626 -0.8808281 -0.72015375 0.4715793 0.9859554 0.011170926 -0.04360698 0.3912453
-1.1772213 0.019582875 -0.61128485 -0.1830088 -2.4818802 0.27587157 0.5912026 0.16700988
0.8352181 0.43179774 -0.24178046 -0.91433007 -1.290688 0.48873296 0.9059277 0.8378231
0.9452109 0.016623931 -0.14972393 -0.28650725 0.08225998 -0.1480082 -1.4435546 0.75205195
-0.6359294 -0.81139225 -0.25475833 -2.1011827 0.40763238 0.9013711 0.07347465 -0.04219119
-0.72006905 0.717625 0.45030525 1.197457 0.65615916 0.35929826 -1.1620917 0.22098483
0.10420766 0.25329512 -0.040422305 1.521942 0.72706956 0.5179417 -0.0023206526 -0.4010189
0.32505876 0.013242915 0.14237146 0.6548807 -0.0436126 -1.3524077 0.78209203 -0.7992328
-0.17824478 0.5602132 -0.42420718 0.066379815 1.1240695 -0.5364406 1.2533823 -0.3728892
0.8173267 0.53363025 -0.22246686 -0.4693403 0.12240842 0.22383869 0.70474786 0.09807023
1.0848042 -0.07451035 0.76611084 1.0666742 -0.3042853 -0.20470668 -0.4190335 -1.2091966
0.5828703 -1.09681 -0.36032328 0.6022597 -0.35091308 0.96999985 0.099650025 0.1311326
-0.8248729 -0.788287 0.7696786 1.0742167 -0.057492953 -0.6167933 -0.29130182 -0.35062614
0.74678546 -0.3578137 0.20325908 0.983169 -0.63453656 -0.4630013 -1.0882574 -0.8050628
00000000: 38f6 1cbe 3d7d 8abc 8249 ee3c 9683 623f
00000010: 71da 8fbe 68b8 8abf f713 983d 1b21 f7be
00000020: e999 9ebe 826c 613f 8f86 85be 8da2 0b3f
00000030: 161b b33e c700 1dbf 6825 023f 65e7 6cbe
00000040: 10f4 923e 7554 dabd 9b55 213f 8205 00be
00000050: 3769 dfbe beea 5b3e d2bc 0e3f 4488 06bc
00000060: 3fcb 0c3e d091 55be 550c fe3e c779 f13e
00000070: d584 a9bd 0cd8 033f 98b3 373c 6ba5 633b
00000080: 27c0 fa3e 7e49 0dbf a34b dd3e 1c40 a43d
00000090: d27b be3e b0d7 b73e 0fc1 97be 4522 45bc
000000a0: 7f86 13bf 930c 0fbf 768d 8ebd 45b1 0b3f
000000b0: f679 97be 18d9 3bbe c976 f2be 4eee 4a3e
000000c0: cfd2 caba 3501 34be 542d 97be 49cb 7e3e
000000d0: 9dc6 7cbe 331e d2be 9217 5abe 5599 7abc
000000e0: 1c61 ccbf 9c0e e43e d531 903f 8048 b93d
000000f0: 5a68 2b3e 6201 f63e c627 84bf 46a0 f8be
00000100: 4579 83be d003 683f 32fc 1abd c347 283f
00000110: 2ad7 483f eddc 1e3f ef02 fdbe a69b 02bf
00000120: 54fe 1c3e c850 c13e fbbd 80bf 713c 2d3e
00000130: bbb1 acbe 61de ef3d 8bd3 e2be 2ef6 9ebf
00000140: c1db c53e 7113 b13d 407d aabe cef4 0abe
00000150: ef0f b4be 9423 debe f05d 0d3f 8da5 453f
00000160: 30fc ea3e 201d 183e eced 84be 0ade 85bf
00000170: 430e 6abe a6e0 313f 20d2 4f3e e651 203f
00000180: 5812 133f 9bae 2a3e 1f76 23be 48e5 04bd
00000190: 9239 d2bf ec83 753f f280 743c e66d 783f
000001a0: 3c9d 26bf dc1d 95bf 42d3 83bd c259 4dbf
000001b0: 7917 013e f676 223f 77df c1be 6da6 943e
000001c0: 32e9 4b3f 9cf3 0ebf 072e a73f 4b34 f9be
000001d0: 7e6e b63d b533 443f 3522 673f 30c4 aa3e
000001e0: bde2 f9be 6452 223f b972 ba3e fe5c 0e3c
000001f0: 00e7 be3e 819e c5be 1a02 8e3f 75cd 253f
00000200: 6df5 2a3e c20a 0a3f a955 30be f5b5 07bf
00000210: 9fad 103f 231f 18bf 27de 433c 5b32 76be
00000220: 9655 173f 1194 183d 0ddf e8be d887 d8be
00000230: f3b4 40bf e581 7e3e f575 66be 818b de3e
00000240: 4f62 85bf f37d 61bf ff5b 38bf d872 f13e
00000250: 9367 7c3f 4206 373c 3c9d 32bd 4e51 c83e
00000260: 30af 96bf 446c a03c 2a7d 1cbf a966 3bbe
00000270: 20d7 1ec0 0a3f 8d3e 0e59 173f a304 2b3e
00000280: dad0 553f 9814 dd3e 4c95 77be 8911 6abf
00000290: 4435 a5bf 353b fa3e e1ea 673f 937b 563f
000002a0: 57f9 713f e92e 883c 3b51 19be 14b1 92be
000002b0: ec77 a83d 768f 17be 66c6 b8bf 7a86 403f
000002c0: 45cc 22bf 67b7 4fbf af6f 82be c779 06c0
000002d0: 31b5 d03e 42c0 663f e179 963d abd0 2cbd
000002e0: 7256 38bf 46b6 373f 698e e63e 4546 993f
000002f0: 0cfa 273f f1f5 b73e 6cbf 94bf d949 623e
00000300: d36a d53d e6af 813e dc91 25bd ffce c23f
00000310: 3b21 3a3f d497 043f 1716 18bb 5952 cdbe
00000320: 1a6e a63e d0f8 583c d3c9 113e 43a6 273f
00000330: 20a3 32bd b21b adbf 2f37 483f 859a 4cbf
00000340: cd85 36be 226a 0f3f af31 d9be 24f2 873d
00000350: 82e1 8f3f 2c54 09bf d56e a03f 55eb bebe
00000360: 533c 513f fe9b 083f 5ace 63be 5f4d f0be
00000370: 44b1 fa3d f835 653e 5b6a 343f 0bd9 c83d
00000380: ddda 8a3f e298 98bd d71f 443f c888 883f
00000390: 48cb 9bbe a19e 51be 8f8b d6be f4c6 9abf
000003a0: fd36 153f 4564 8cbf 4b7c b8be b12d 1a3f
000003b0: e1aa b3be e951 783f 5015 cc3d a047 063e
000003c0: df2a 53bf 2dcd 49bf a809 453f ef7f 893f
000003d0: bb7d 6bbd 2ae6 1dbf 8325 95be 4585 b3be
000003e0: 552d 3f3f 5b33 b7be 2623 503e f7b0 7b3f
000003f0: fd70 22bf 820e edbe 054c 8bbf 9818 4ebf

initial_c f4 [12, 100]
-0.70582557 0.21542788 0.17752838 1.3542602 -0.7263634 -0.8935486 -0.21169308 -1.1565746
-0.3541329 1.5682731 -0.23435853 0.07107907 0.75328404 -0.587223 0.570838 -0.11623822
0.7854697 0.3397793 0.58422214 0.026480889 0.06144487 0.09799602 0.64349926 -0.13294375
0.37685376 0.2991372 0.6589359 0.7703785 -0.067163885 0.3741936 0.16488655 -0.16765967
0.56569046 -0.46534574 0.36800066 0.061994035 0.6175855 0.41965815 -0.5529072 -0.3739909
-0.8954183 -0.30723253 -0.08770203 0.36273822 -0.4851652 -1.10241 -1.0786508 -0.18202002
0.06718301 -0.3112907 -0.32859394 0.46656433 -0.043041874 -0.58392185 -0.40711766 -0.29079047
-1.1637939 0.83681744 0.8887796 0.2320375 -0.053640727 0.82637227 -1.0139908 -0.88774765
-0.56809324 0.7845076 -0.7456314 0.7604784 0.68695366 0.8909701 -0.80407894 -0.6120998
0.45619228 0.20471795 -1.2492578 0.004185191 -0.60359955 0.023995142 -0.7882482 -1.0782477
0.19667126 -0.7609733 -0.14704613 0.13909003 -0.67015064 -0.66981244 0.8835374 0.76781833
0.39088604 0.19323401 -0.9376312 -0.63254476 -0.15795384 0.7953537 0.17245333 0.19994664
0.3933834 0.4124819 -0.94583803 -0.0024416612 -1.1551998 1.5650557 -0.17737065 1.1654333
-0.7082126 -0.63995826 -0.25959465 -1.0050912 -0.14424767 0.17791453 0.2431674 0.9615885
0.88512015 -1.4056224 1.6945109 -0.370309 0.22835064 1.1098453 1.0850036 0.7351967
0.28963888 1.2157598 2.009611 -0.13804513 -0.8277523 -0.67923963 1.075543 0.64706784
1.3477063 0.4793136 0.62605995 -0.62556726 1.5330586 -0.81711656 0.06470043 -0.30889484
1.4461265 0.31291047 -0.27874276 -0.40486974 -1.6731627 -0.6985739 -0.85463053 1.3742803
-1.2379063 -0.4502796 -0.0015870159 -0.2208078 1.1410375 -1.1418169 0.33601063 1.4451535
0.08057443 -0.057969823 -2.0605934 -0.559094 -1.4447678 0.009051104 -0.66128844 1.1141742
1.0169735 0.028850434 -1.2932421 -1.4955832 -0.79989916 0.917364 -0.023642555 0.7421819
1.1194754 1.8629867 -1.1169744 -0.51535326 1.5112844 0.1099261 -1.3091431 -0.009467806
-0.15955631 -0.47234625 -0.74317855 -1.327855 1.2690104 0.18282458 -0.009207946 0.15489835
-1.4872231 1.2446377 1.0515614 0.83047146 0.42198786 -0.58300275 -1.2531165 1.3582451
-0.36382854 1.4958779 0.06351196 2.4801397 1.3800173 1.2667732 -1.4290535 0.12234674
-0.59849817 0.9870656 0.007414047 1.0678347 -0.39240566 -1.0324655 0.361634 -1.0254954
-0.28267196 0.9867079 -0.081995666 -0.34074953 0.9353044 -1.255083 1.3459485 -0.30865717
0.3960932 1.1460699 1.038992 -2.2253993 0.07549434 1.081971 1.0388882 -0.107836746
1.7365086 0.6443138 1.2104105 1.6414484 0.7214223 0.26283672 -0.5940323 -1.8490627
0.90508074 -1.3690696 0.15364671 0.037061874 0.35177916 1.2618812 -0.9804842 -0.4832489
-0.93336004 -0.5044401 -0.32208857 0.67111474 -1.4467533 -0.5851855 -1.2332112 -0.4622418
0.3578205 -1.0292081 0.20593563 1.2648437 2.6268146 -1.1035036 -1.7908646 -0.44378006
00000000: fcb0 34bf 2099 5c3e 00ca 353e 6658 ad3f
00000010: f4f2 39bf 9abf 64bf 12c6 58be a30a 94bf
00000020: e850 b5be 2cbd c83f affb 6fbe e791 913d
00000030: 39d7 403f 3f54 16bf 7022 123f 4e0e eebd
00000040: 8b14 493f 8df7 ad3e 958f 153f 73ee d83c
00000050: 9ead 7b3d 23b2 c83d 5ebc 243f 6822 08be
00000060: faf2 c03e 8328 993e 06b0 283f 8637 453f
00000070: 388d 89bd 4e96 bf3e 05d8 283e faae 2bbe
00000080: 17d1 103f cc41 eebe 956a bc3e 75ed 7d3d
00000090: 151a 1e3f 6fdd d63e 548b 0dbf bc7b bfbe
000000a0: 223a 65bf 954d 9dbe 1f9d b3bd d3b8 b93e
000000b0: 9367 f8be c51b 8dbf 3b11 8abf 7563 3abe
000000c0: 3f97 893d 7f61 9fbe 773d a8be 85e1 ee3e
000000d0: ad4c 30bd e77b 15bf ba71 d0be 7de2 94be
000000e0: 33f7 94bf ab39 563f 0f87 633f 3d9b 6d3e
000000f0: 61b6 5bbd 228d 533f 73ca 81bf 6e43 63bf
00000100: 8f6e 11bf 7dd5 483f b3e1 3ebf b6ae 423f
00000110: 32dc 2f3f 9e16 643f 1ed8 4dbf 93b2 1cbf
00000120: 0992 e93e 95a1 513e aee7 9fbf ed23 893b
00000130: 8085 1abf 7691 c43c a2ca 49bf 0504 8abf
00000140: 3164 493e 25cf 42bf 4393 16be 9e6d 0e3e
00000150: fe8e 2bbf d478 2bbf 822f 623f be8f 443f
00000160: 3722 c83e 23df 453e 9908 70bf 74ee 21bf
00000170: a7be 21be 4d9c 4b3f 9b97 303e d0be 4c3e
00000180: 8d69 c93e d430 d33e 7122 72bf 4704 20bb
00000190: 96dd 93bf bf53 c83f a7a0 35be eb2c 953f
000001a0: 6c4d 35bf 4ed4 23bf 97e9 84be d4a6 80bf
000001b0: a9b5 13be 3a2f 363e e000 793e aa2a 763f
000001c0: 3c97 623f 6feb b3bf bce5 d83f 2499 bdbe
000001d0: c0d4 693e 690f 8e3f 66e1 8a3f da35 3c3f
000001e0: 8c4b 943e 049e 9b3f 779d 0040 b45b 0dbe
000001f0: 93e7 53bf a6e2 2dbf 65ab 893f 3da6 253f
00000200: a481 ac3f 9868 f53e 7745 203f 2d25 20bf
00000210: 443b c43f 8d2e 51bf a981 843d 7727 9ebe
00000220: ac1a b93f cd35 a03e 5fb7 8ebe 164b cfbe
00000230: 322a d6bf bdd5 32bf 11c9 5abf 6be8 af3f
00000240: b773 9ebf 0c8b e6be 6b03 d0ba 711b 62be
00000250: 840d 923f 0e27 92bf 9609 ac3e cafa b83f
00000260: 3504 a53d c471 6dbd c3e0 03c0 c920 0fbf
00000270: 27ee b8bf 154b 143c 334a 29bf 439d 8e3f
00000280: 302c 823f bf57 ec3c f588 a5bf 456f bfbf
00000290: 31c6 4cbf 5ed8 6a3f 08ae c1bc a2ff 3d3f
000002a0: f84a 8f3f 5976 ee3f 04f9 8ebf 31ee 03bf
000002b0: c471 c13f ef20 e13d 0092 a7bf db1e 1bbc
000002c0: bb62 23be 5ed7 f1be f340 3ebf 27f7 a9bf
000002d0: ef6e a23f 5e36 3b3e eddc 16bc ac9d 1e3e
000002e0: 545d bebf 4a50 9f3f 9099 863f c799 543f
000002f0: cb0e d83e ab3f 15bf 1f66 a0bf fada ad3f
00000300: bc47 babe ed78 bf3f 8f12 823d 9cba 1e40
00000310: 68a4 b03f a025 a23f 3aeb b6bf ed90 fa3d
00000320: 2d37 19bf 55b0 7c3f 89f1 f23b cfae 883f
00000330: 65e9 c8be d427 84bf 1728 b93e 6f43 83bf
00000340: 61ba 90be e498 7c3f 58ed a7bd b976 aebe
00000350: 1c70 6f3f 8fa6 a0bf 0a48 ac3f 5008 9ebe
00000360: bacc ca3e 6bb2 923f b1fd 843f f16c 0ec0
00000370: c79c 9a3d 077e 8a3f 4afa 843f 83d9 dcbd
00000380: ea45 de3f c0f1 243f bbee 9a3f fb1a d23f
00000390: 22af 383f 8992 863e 8012 18bf 16ae ecbf
000003a0: 5fb3 673f ac3d afbf 9055 1d3e 31ce 173d
000003b0: 661c b43e 5385 a13f 0301 7bbf 666c f7be
000003c0: aff0 6ebf fd22 01bf cbe8 a4be 2dce 2b3f
000003d0: 362f b9bf b8ce 15bf ddd9 9dbf f5aa ecbe
000003e0: 4034 b73e 17bd 83bf cae0 523e 66e6 a13f
000003f0: bb1d 2840 9b3f 8dbf 0d3b e5bf 2437 e3be

h2h.weight_ih f4 [400, 2]
0.15121256 0.019160917 0.37222007 0.007870892 0.13701497 -0.05102782 0.12503102 0.13880011
0.19428246 0.086802654 0.02363144 0.08003262 0.03832555 0.0377235 0.030490428 -0.041749362
0.063254416 0.110148214 0.24256577 -0.10558212 -0.04980149 0.29102397 -0.03225002 0.15874954
0.13105434 0.21096985 -0.25693163 -0.08152335 0.04040926 0.016994746 0.1774833 0.31655717
0.14151339 0.1862948 0.13132156 0.116138436 0.15259157 0.1462971 -0.01796895 -0.12711625
0.27675414 -0.0348857 0.16467823 0.0074528237 0.24163483 0.05028045 0.09057209 0.36116773
0.17089394 -0.31664455 -0.12615311 0.020340163 -0.012802906 0.054295134 0.24259669 -0.063763015
0.06782476 0.047676872 0.16688602 0.105041005 0.16699761 -0.1425241 0.19596305 -0.0287357
0.11878212 0.12919925 0.03611628 0.10646852 0.034663606 0.15886857 0.13464099 -0.038934126
0.1908618 0.06048218 0.24464265 0.08935041 -0.020218095 0.18146202 -0.05598592 0.061091904
0.093360476 0.17663531 0.0843047 0.172037 0.09071223 -0.12659644 0.17756124 0.15506595
0.19721626 -0.10127498 -0.0587167 -0.17241251 0.16954957 0.23189618 0.1905199 -0.04061766
-0.04814482 0.23769565 0.10632043 0.06785696 0.15153946 0.22799341 -0.102004714 0.11128461
0.3964116 -0.12904407 -0.0228607 0.023032494 -0.015727853 0.052549247 0.032235526 0.07441563
0.09961313 0.19998346 0.09806188 0.05389791 0.070064805 -0.025622996 -0.005726449 0.09212552
0.09685288 -0.008246455 0.108413905 -0.4067039 0.07436773 0.46293315 0.19692196 0.11175533
0.20957279 0.17550768 0.11763896 0.12758406 0.114991315 -0.00022488278 0.16166279 -0.09542053
0.14734033 0.037315354 0.060075473 -0.016522342 -0.10280126 0.09306705 0.023974631 0.07361578
-0.11477008 -0.000145066 0.081975035 0.12844034 0.009039684 0.24205756 0.18829873 -0.18240729
0.15657559 0.1446786 0.2132219 -0.13481969 0.012134128 0.03800895 0.07726179 0.024536816
-0.22062024 -0.058329616 0.15373068 -0.08451081 0.07104015 0.15374938 -0.056598764 -0.011023652
0.028340613 0.15330121 0.111958556 -0.10909228 0.00097258267 0.07911485 -0.010364015 0.06869972
0.031028287 0.0054193228 0.2720198 -0.08238535 0.21689376 0.097612634 0.12081347 0.0018674762
0.11513861 0.12378837 0.069017306 0.15436845 0.2412597 0.02442874 -0.12256619 -0.10476985
0.08443783 -0.09189505 -0.014147492 -0.019696442 0.06219938 0.11645467 0.09032506 0.16513577
-0.02854126 0.03478816 -0.027996238 0.0996343 -0.023966601 0.18810648 0.18138024 0.11407737
0.10992609 0.15812662 0.2637952 -0.0029805305 0.067086324 -0.10288575 0.09203404 -0.01728434
0.02857257 0.18196271 0.23423181 -0.05053174 -0.043573212 0.29673386 -0.05561757 0.2374779
0.22334757 0.1508386 -0.13341832 -0.07681664 0.17644985 0.1449245 -0.12593554 0.05748464
0.13590296 0.06520135 0.16545478 0.1563764 0.0315493 0.13604748 -0.0976363 -0.0118221
0.17726092 -0.010414833 0.09719743 0.021650285 0.1766591 0.116939925 -0.014484779 0.16529633
0.15704866 -0.20163924 -0.12949367 0.12544155 0.1270082 0.039741114 0.22892003 -0.1483994
00000000: 77d7 1a3e 5bf7 9c3c a193 be3e eaf4 003c
00000010: a74d 0c3e 8c02 51bd 2208 003e 9e21 0e3e
00000020: fbf1 463e 97c5 b13d b996 c13c 24e8 a33d
00000030: 40fb 1c3d f583 1a3d 10c7 f93c 6101 2bbd
00000040: 888b 813d 6395 e13d 2963 783e 703b d8bd
00000050: a6fc 4bbd 1801 953e 9918 04bd 3d8f 223e
00000060: 1c33 063e 7b08 583e 8b8c 83be b7f5 a6bd
00000070: 2e84 253d 9138 8b3c 2fbe 353e c813 a23e
00000080: e3e8 103e 10c4 3e3e 2979 063e fdd9 ed3d
00000090: f740 1c3e e8ce 153e 9f33 93bc c32a 02be
000000a0: b8b2 8d3e 4fe4 0ebd 69a1 283e d136 f43b
000000b0: 1f6f 773e e0f2 4d3d dc7d b93d faea b83e
000000c0: d2fe 2e3e 3c1f a2be 482e 01be 6aa0 a63c
000000d0: 48c3 51bc 9364 5e3d 446b 783e 2f96 82bd
000000e0: b5e7 8a3d d348 433d 2be4 2a3e bd1f d73d
000000f0: 6c01 2b3e d6f1 11be 8aaa 483e 2167 ebbc
00000100: 0a44 f33d cf4c 043e aaee 133d 2b0c da3d
00000110: 6dfb 0d3d 71ae 223e 54df 093e 6479 1fbd
00000120: 4771 433e 2abc 773d 9a83 7a3e 59fd b63d
00000130: 6ba0 a5bc 2ed1 393e 7e51 65bd 813b 7a3d
00000140: c733 bf3d e3df 343e f1a7 ac3d 782a 303e
00000150: 55c7 b93d 7fa2 01be 9dd2 353e 9cc9 1e3e
00000160: 0ff3 493e 4269 cfbd ec80 70bd e88c 30be
00000170: 679e 2d3e 3176 6d3e a617 433e b45e 26bd
00000180: 8133 45bd 7d66 733e 87be d93d 97f8 8a3d
00000190: 292d 1b3e 1b77 693e d9e7 d0bd 30e9 e33d
000001a0: 76f6 ca3e 2124 04be 5d46 bbbc a4ae bc3c
000001b0: b3d7 80bc e13d 573d 6609 043d 3967 983d
000001c0: f801 cc3d 77c8 4c3e abd4 c83d 0ec4 5c3d
000001d0: 237e 8f3d 51e7 d1bc f0a4 bbbb 4eac bc3d
000001e0: ce5a c63d 241c 07bc 1c08 de3d 7e3b d0be
000001f0: 1c4e 983d 9305 ed3e e9a5 493e fadf e43d
00000200: 409a 563e 49b8 333e b2ec f03d 65a5 023e
00000210: 9180 eb3d 83ce 6bb9 ee8a 253e d76b c3bd
00000220: 62e0 163e fcd7 183d b311 763d dd59 87bc
00000230: 7889 d2bd f099 be3d 7266 c43c dfc3 963d
00000240: 930c ebbd dc1c 18b9 87e2 a73d dd85 033e
00000250: 2f1b 143c f0dd 773e 62d1 403e fac8 3abe
00000260: 5a55 203e a026 143e d756 5a3e 2c0e 0abe
00000270: 39ce 463c 46af 1b3d 6e3b 9e3d 6f01 c93c
00000280: 46ea 61be 09eb 6ebd 936b 1d3e 0114 adbd
00000290: 807d 913d 7a70 1d3e 1bd4 67bd 8c9c 34bc
000002a0: 932a e83c fefa 1c3e 874a e53d c66b dfbd
000002b0: ebf4 7e3a f706 a23d d4cd 29bc 70b2 8c3d
000002c0: 092f fe3c 9394 b13b 2e46 8b3e a6b9 a8bd
000002d0: 6619 5e3e 22e9 c73d 0d6d f73d 1ac6 f43a
000002e0: cbcd eb3d c284 fd3d f258 8d3d c312 1e3e
000002f0: c80c 773e c81e c83c fc03 fbbd 9391 d6bd
00000300: beed ac3d 7933 bcbd e2ca 67bc 6f5a a1bc
00000310: c7c4 7e3d c97f ee3d 58fc b83d 5a19 293e
00000320: 5ccf e9bc 087e 0e3d 5e58 e5bc 110d cc3d
00000330: 9b55 c4bc fc9e 403e bebb 393e 65a1 e93d
00000340: ee20 e13d f2eb 213e 2a10 873e 0155 43bb
00000350: 8e64 893d c4b5 d2bd 587c bc3d e397 8dbc
00000360: 0611 ea3c 6f54 3a3e 77da 6f3e 5ffa 4ebd
00000370: d379 32bd 80ed 973e 40cf 63bd 682d 733e
00000380: 3ab5 643e 6f75 1a3e d09e 08be 0b52 9dbd
00000390: 45af 343e 1767 143e 3ff5 00be 0475 6b3d
000003a0: 252a 0b3e 4988 853d fa6c 293e 2321 203e
000003b0: d739 013d 0850 0b3e 8af5 c7bd 7bb1 41bc
000003c0: e383 353e faa2 2abc 720f c73d f05b b13c
000003d0: 20e6 343e 337e ef3d 9151 6dbc 7143 293e
000003e0: 5dd1 203e 847a 4ebe fd99 04be c073 003e
000003f0: 700e 023e 94c7 223d 036a 6a3e 03f6 17be

h2h.weight_hh f4 [400, 100]
0.0072084516 0.024414908 0.12070551 0.085182086 -0.028566161 -0.0686194 -4.0294817e-05 -0.09210035
-0.083856575 0.07295887 0.12821805 0.08488648 -0.03137716 -0.066938646 0.14527625 0.082050934
0.109630436 0.06043399 0.13021624 -0.05103742 0.07539445 -0.10404634 0.116213314 0.022306396
0.07217293 -0.038077284 -0.035583355 0.055228148 0.36284125 0.017369544 -0.016482616 -0.09493602
0.105738305 0.015443102 0.11095183 -0.2986951 0.07521686 -0.0044161305 0.034153875 -0.08740599
-0.07941411 -0.0025268842 -0.07957691 -0.027300587 -0.16745915 -0.120552644 -0.09340884 -0.02817414
0.06530278 -0.04049552 0.15214646 0.0068319445 -0.120435566 -0.070965625 -0.113407806 -0.018653791
-0.08029293 0.060841613 -0.11810328 0.32194823 -0.09205658 0.14144833 -0.121276036 -0.122522116
-0.058051888 0.009263158 0.14007767 -0.0109156715 0.08878984 0.1459693 -0.07638433 0.02835229
0.09469467 0.11569916 -0.17758326 0.16732901 0.12286681 -0.092104025 -0.09031226 -0.07717867
-0.019980812 0.22199984 -0.089639306 0.017217249 0.059405413 0.046382472 0.09870616 0.06413188
0.08742219 -0.12186538 -0.011649928 -0.09237703 0.07363823 0.013337509 0.05993085 0.44636074
0.10981217 -0.15534769 0.03502546 0.028459432 -0.20094508 0.13049315 -0.054830763 0.10309716
-0.110445246 -0.19841228 0.15842871 -0.10632963 -0.15840372 0.07322185 0.17326638 0.16209772
0.15141001 0.012718975 0.10831227 0.10000033 0.14010829 0.11952814 0.1433625 0.03581989
-0.071252435 0.099659815 0.05594481 0.16421153 -0.10876933 0.085545 0.21630573 0.04895705
0.3874786 0.17667857 -0.044114664 -0.11823103 0.08776342 -0.17057876 0.15754928 -0.38189015
0.088169664 0.22191863 -0.072635144 0.0011671997 -0.15924025 0.0072143045 -0.3369955 0.1569915
-0.04978273 -0.06265326 -0.13776182 -0.29175264 0.022394923 -0.060110684 0.074059255 0.09258122
0.045766655 -0.04510935 -0.10613337 -0.043421287 -0.17511657 0.2055874 -0.23900916 0.3581753
-0.14763992 -0.31856704 -0.20400251 -0.10659798 -0.12385372 0.12359636 0.32359722 -0.040821973
0.1440348 0.21637595 -0.12458608 -0.11020271 0.18828115 -0.152475 -0.14921525 0.07333688
-0.20660721 -0.06519567 -0.23031718 -0.2734521 0.18115024 0.15971981 0.12544075 -0.16786781
-0.22021195 0.14042975 0.23436606 0.15994659 0.09720064 0.15277459 -0.20906296 0.08934841
-0.123456195 0.18779846 -0.01398056 0.0056213723 0.17917928 0.15335436 -0.21772876 -0.22931315
-0.1403527 0.09619825 -0.011332306 -0.02854037 -0.06463038 0.020230085 0.22946441 -0.042650923
-0.064917445 0.06990005 -0.13445553 0.18506663 0.050436124 -0.076563165 0.051510192 0.13396744
0.03653366 -0.06418757 -0.018051658 -0.00027405075 -0.22670068 0.09740427 0.00071307813 0.0483435
-0.005466841 -0.31692305 -0.057920203 -0.0135659175 0.16483033 0.08044463 -0.039152868 -0.0065645427
0.009730361 0.08343501 -0.06730183 -0.023391634 -0.04177791 -0.059813645 -0.31550127 -0.085962825
0.02599476 -0.118752666 -0.1581028 0.045554396 0.009508993 -0.05569154 0.0009944664 0.08432206
0.04617372 -0.06643646 -0.22140834 0.015808702 -0.15212002 -0.114364415 -0.013438948 0.02175402
00000000: e034 ec3b c601 c83c 7334 f73d f273 ae3d
00000010: 9503 eabc 5488 8cbd 3b02 29b8 1c9f bcbd
00000020: ffbc abbd 766b 953d 984b 033e f6d8 ad3d
00000030: 5685 00bd 2117 89bd 4cc3 143e 520a a83d
00000040: ec85 e03d a289 773d 6857 053e 9d0c 51bd
00000050: 6868 9a3d 3f16 d5bd 3f01 ee3d e7bb b63c
00000060: 67cf 933d edf6 1bbd dabf 11bd e936 623d
00000070: 54c6 b93e 934a 8e3c 8d06 87bc d16d c2bd
00000080: 538d d83d 1105 7d3c b73a e33d 90ee 98be
00000090: 4c0b 9a3d 30b5 90bb efe4 0b3d e901 b3bd
000000a0: dda3 a2bd 159a 25bb 38f9 a2bd 7ba5 dfbc
000000b0: 697a 2bbe 4ee4 f6bd 224d bfbd 74cd e6bc
000000c0: 77bd 853d a1de 25bd 48cc 1b3e 81de df3b
000000d0: eca6 f6bd 6d56 91bd 5a42 e8bd d6cf 98bc
000000e0: 9f70 a4bd 0e35 793d 22e0 f1bd 66d6 a43e
000000f0: 2988 bcbd d5d7 103e 925f f8bd e0ec fabd
00000100: d1c7 6dbd 80c4 173c 8570 0f3e a5d7 32bc
00000110: 73d7 b53d fa78 153e 636f 9cbd 1043 e83c
00000120: 47ef c13d aef3 ec3d 63d8 35be 4c58 2b3e
00000130: 98a1 fb3d 09a1 bcbd a2f5 b8bd da0f 9ebd
00000140: cdae a3bc ed53 633e d094 b7bd 300b 8d3c
00000150: 1753 733d 8cfb 3d3d 7526 ca3d 9357 833d
00000160: 680a b33d 8e94 f9bd 57df 3ebc 2b30 bdbd
00000170: a4cf 963d 9185 5a3c 0d7a 753d 6589 e43e
00000180: 34e5 e03d 7713 1fbe db76 0f3d c123 e93c
00000190: 8cc4 4dbe ff9f 053e 3996 60bd 9b24 d33d
000001a0: 1e31 e2bd 972c 4bbe 233b 223e 59c3 d9bd
000001b0: 9634 22be 56f5 953d be6c 313e f2fc 253e
000001c0: 3a0b 1b3e 3f63 503c d3d2 dd3d f9cc cc3d
000001d0: 8c78 0f3e 2bcb f43d 9fcd 123e e1b7 123d
000001e0: ccec 91bd 721a cc3d 6326 653d 1127 283e
000001f0: 74c2 debd 3832 af3d 407f 5d3e 3087 483d
00000200: 9863 c63e 3aeb 343e 94b1 34bd 1c23 f2bd
00000210: 4fbd b33d 33ac 2ebe 9954 213e 1b87 c3be
00000220: 4c92 b43d a33e 633e bcc1 94bd b9fc 983a
00000230: e00f 23be f965 ec3b ad8a acbe 61c2 203e
00000240: fae8 4bbd 5a50 80bd 6f11 0dbe 9a60 95be
00000250: 8f75 b73c 9f36 76bd 61ac 973d 399b bd3d
00000260: d175 3b3d 95c4 38bd 745c d9bd 85da 31bd
00000270: c251 33be 8185 523e d1be 74be c162 b73e
00000280: eb2e 17be 381b a3be 09e6 50be 0b50 dabd
00000290: 05a7 fdbd 1720 fd3d 89ae a53e f134 27bd
000002a0: dc7d 133e a891 5d3e fd26 ffbd f5b1 e1bd
000002b0: c6cc 403e 6822 1cbe e2cb 18be a531 963d
000002c0: d790 53be 4f85 85bd 44d8 6bbe ea01 8cbe
000002d0: 737f 393e 978d 233e 8a73 003e 8ae5 2bbe
000002e0: 3e7f 61be d1cc 0f3e a8fd 6f3e 0ac9 233e
000002f0: 2111 c73d f170 1c3e 9a14 56be 4dfc b63d
00000300: 9ad6 fcbd 3d4e 403e b80e 65bc 7d33 b83b
00000310: c67a 373e ed08 1d3e 4af4 5ebe 11d1 6abe
00000320: 9eb8 0fbe 9703 c53d 23ab 39bc 7ecd e9bc
00000330: ef5c 84bd 90b9 a53c b8f8 6a3e bcb2 2ebd
00000340: 70f3 84bd c227 8f3d b6ae 09be 1b82 3d3e
00000350: 1c96 4e3d 26cd 9cbd 5afc 523d c32e 093e
00000360: 52a4 153d c674 83bd 12e1 93bc 78ae 8fb9
00000370: 3924 68be e47b c73d dded 3a3a d503 463d
00000380: 3023 b3bb bd43 a2be bc3d 6dbd 9543 5ebc
00000390: 48c9 283e 27c0 a43d c25e 20bd 601b d7bb
000003a0: 186c 1f3c f9df aa3d 8bd5 89bd d09f bfbc
000003b0: 501f 2bbd 27ff 74bd 6289 a1be 470d b0bd
000003c0: f7f2 d43c 9934 f3bd b3e5 21be 3f97 3a3d
000003d0: 9bcb 1b3c d01c 64bd c158 823a 0bb1 ac3d
000003e0: a820 3d3d d70f 88bd deb8 62be 4081 813c
000003f0: 5ac5 1bbe e437 eabd 092f 5cbc 7d35 b23c

h2h.bias_ih f4 [400]
0.025699286 0.27651802 -0.006679845 0.029093713 -0.008270867 0.008676917 0.07259127 0.14249593
0.08229354 0.0054207626 -0.0744251 0.023826629 0.15014096 -0.06458676 0.098478764 0.23382989
0.19661272 0.15488836 0.23335755 0.029315049 -0.059930217 0.016492134 0.080174334 0.14306247
-0.042055078 0.008063316 0.1594834 -0.043599963 -0.005056228 0.09516954 -0.009577829 0.012726496
0.19865368 0.06374318 0.17821041 0.002565776 0.055402618 0.066183396 -0.03519414 0.1639752
0.11427997 0.033917777 -0.026709462 0.0694269 -0.058453403 0.08641952 0.18113701 0.10085826
0.015703011 0.13491283 -0.07115968 0.11238127 0.015426129 0.08085441 0.008120631 0.081255525
0.19286089 0.14836736 0.058180906 0.02789142 0.026762579 -0.07956871 0.12807286 0.052605696
0.125153 0.15107162 0.011145111 -0.08562611 0.0816331 0.14430118 0.0747511 -0.0010945185
0.15528576 0.0062827887 -0.021061873 -0.027474178 -0.08591751 -0.06175742 0.07729108 0.068741426
0.025100367 -0.017866852 -0.12929729 0.13225977 -0.0029718187 0.09623271 0.16862676 0.0502142
-0.059132803 0.038502496 0.022182606 -0.013374472 0.005977045 0.20337759 0.123236164 -0.057651475
-0.005245216 0.03465028 0.10837644 0.07346709 -0.031698946 0.006293338 0.031521726 -0.027142104
0.05648402 0.04681423 0.08388697 0.0040895515 0.12617674 0.063532576 -0.048178054 -0.011533112
0.119402364 -0.0019289504 0.13940063 0.03103028 0.019673498 0.09160124 0.07269463 0.0023604818
0.099812284 -0.044330098 0.13887313 -0.01739936 0.04499819 -0.023638055 0.057391297 -0.11461946
0.092183344 0.073241495 -0.06644168 -0.0013507911 0.061683048 0.05953314 0.17399417 -0.0084192045
0.051009182 -0.058613084 0.024818437 0.08030972 0.07273398 -0.07329798 0.0894923 0.08406949
0.070874766 -0.006493907 0.16938218 0.084235 0.0030382418 0.012153227 -0.031666912 -0.014130105
0.034043264 0.018468207 0.03511779 -0.044887934 0.16754526 0.11819446 0.0036800106 0.020716349
0.07488426 -0.08897267 0.088864036 0.19273865 0.13627774 0.15050855 -0.056835692 -0.05939578
-0.043097936 0.15817733 -0.007424238 -0.009348956 -0.03809138 0.0004810364 0.19057466 0.022597902
-0.091681935 -0.007904831 0.19244125 0.009311978 -0.041647043 0.024241323 0.08547495 -0.031696126
0.054485645 0.11397742 0.19362661 -0.07691651 0.09997317 -0.038700365 0.14845988 0.07886983
0.06372918 0.07909691 0.07687378 0.11353876 0.18250912 0.062296454 0.052268595 0.113062695
-0.055474866 0.008849711 -0.10036027 0.15333623 0.0028569503 -0.057749845 -0.030555068 -0.083801284
0.048157815 0.078530535 -0.017302906 -0.021304134 0.004484223 -0.053769395 0.0880191 -0.06633347
0.09941077 0.09036685 0.057172243 -0.07897304 -0.073856674 0.016551688 0.13360044 -0.013279572
-0.1015282 0.078757405 0.074824646 0.07903076 -0.08778681 0.011243291 0.0049754675 0.08646404
-0.03159998 -0.10796231 0.06405877 -0.028360602 -0.02278906 0.07331269 0.03270392 -0.04775634
-0.09796261 0.04769382 -0.05275387 -0.00020010192 0.041249894 -0.062098153 -0.068567865 -0.04437622
-0.02023591 -0.06546473 -0.047023233 0.03978976 -0.09337798 -0.015126943 0.006025438 -0.07823357
00000000: 4f87 d23c c593 8d3e 9ae2 dabb f055 ee3c
00000010: 8882 07bc a129 0e3c bbaa 943d 74ea 113e
00000020: 8489 a83d a7a0 b13b 306c 98bd 1030 c33c
00000030: 8dbe 193e 1046 84bd 3caf c93d 1a71 6f3e
00000040: d854 493e 0e9b 1e3e 48f5 6e3e 1d26 f03c
00000050: 6379 75bd 831a 873c 7132 a43d f87e 123e
00000060: f241 2cbd 001c 043c 9e4f 233e e095 32bd
00000070: b7ae a5bb 3fe8 c23d 54ec 1cbc cb82 503c
00000080: df6b 4b3e c98b 823d ca7c 363e 9426 283b
00000090: dbed 623d 298b 873d bb27 10bd 1de9 273e
000000a0: 9e0b ea3d 5eed 0a3d cdcd dabc b12f 8e3d
000000b0: d66c 6fbd b8fc b03d fb7b 393e c78e ce3d
000000c0: 9aa3 803c 9726 0a3e 2bbc 91bd 2728 e63d
000000d0: e0bd 7c3c ff96 a53d 650c 053c 4c69 a63d
000000e0: 537d 453e 9ded 173e 1a4f 6e3d 8c7c e43c
000000f0: 323d db3c ebf4 a2bd 8825 033e 1279 573d
00000100: 1c28 003e 85b2 1a3e fc99 363c be5c afbd
00000110: 412f a73d b0c3 133e 1b17 993d f275 8fba
00000120: 3b03 1f3e dadf cd3b f389 acbc 8711 e1bc
00000130: 85f5 afbd 59f5 7cbd c94a 9e3d 4ec8 8c3d
00000140: 499f cd3c 815d 92bc 8266 04be 1b6f 073e
00000150: d8c2 42bb a815 c53d 7eac 2c3e 68ad 4d3d
00000160: 3d35 72bd cbb4 1d3d 4cb8 b53c 9a20 5bbc
00000170: 16db c33b 3742 503e 3e63 fc3d f423 6cbd
00000180: 10e0 abbb 74ed 0d3d 78f4 dd3d ea75 963d
00000190: c1d6 01bd 5838 ce3b ed1c 013d 1e59 debc
000001a0: ca5b 673d 47c0 3f3d efcc ab3d a501 863b
000001b0: 7a34 013e 5e1d 823d 5a56 45bd 61f5 3cbc
000001c0: 3a89 f43d d6d4 fcba 0abf 0e3e 3733 fe3c
000001d0: 512a a13c 6e99 bb3d ece0 943d 50b2 1a3b
000001e0: 626a cc3d 7a93 35bd c234 0e3e 1a89 8ebc
000001f0: 0650 383d 98a4 c1bc 2313 6b3d 9cbd eabd
00000200: 9fca bc3d a3ff 953d 9312 88bd 070d b1ba
00000210: 5da7 7c3d 06d9 733d 872b 323e b4f0 09bc
00000220: 01ef 503d 4614 70bd 0950 cb3c 6c79 a43d
00000230: 8ef5 943d 401d 96bd bd47 b73d a02c ac3d
00000240: ca26 913d d7ca d4bb 8672 2d3e 6683 ac3d
00000250: 3d1d 473b 541e 473c 2ab5 01bd f581 67bc
00000260: f370 0b3d a34a 973c acd7 0f3d 69dc 37bd
00000270: fc90 2b3e f00f f23d 552c 713b 55b5 a93c
00000280: eb5c 993d 4e37 b6bd 59fe b53d 485d 453e
00000290: 648c 0b3e ea1e 1a3e 8bcc 68bd fd48 73bd
000002a0: 7687 30bd 3df9 213e 0647 f3bb 5d2c 19bc
000002b0: b505 1cbd 9d33 fc39 0126 433e 3c1f b93c
000002c0: bdc3 bbbd 4483 01bc 520f 453e 4491 183c
000002d0: 1796 2abd bd95 c63c 7e0d af3d ccd3 01bd
000002e0: 572c 5f3d fe6c e93d 0e46 463e 6786 9dbd
000002f0: bcbe cc3d 4684 1ebd de05 183e 8186 a13d
00000300: 7284 823d 90fd a13d 0070 9d3d 0287 e83d
00000310: ace3 3a3e 912a 7f3d 9817 563d 6a8d e73d
00000320: 9d39 63bd 61fe 103c af89 cdbd 2c04 1d3e
00000330: ac3b 3b3b 1a8b 6cbd 9f4e fabc 02a0 abbd
00000340: 2141 453d 9ed4 a03d d3be 8dbc 0286 aebc
00000350: 64f0 923b 4c3d 5cbd 5c43 b43d d8d9 87bd
00000360: e097 cb3d 4112 b93d 712d 6a3d 9ebc a1bd
00000370: 2b42 97bd 6897 873c 8ece 083e 9092 59bc
00000380: 04ee cfbd 904b a13d aa3d 993d e1da a13d
00000390: 92c9 b3bd c835 383c 3f09 a33b 0f14 b13d
000003a0: fb6e 01bd 581b ddbd 3f31 833d 7e54 e8bc
000003b0: 1fb0 babc f724 963d 8cf4 053d 279c 43bd
000003c0: 9fa0 c8bd 985a 433d 7114 58bd 73d2 51b9
000003d0: a6f5 283d a25a 7ebd 4f6d 8cbd d7c3 35bd
000003e0: c7c5 a5bc 5f12 86bd 6f9b 40bd 96fa 223d
000003f0: f43c bfbd ffd6 77bc 0a71 c53b ec38 a0bd

h2h.bias_hh f4 [400]
0.00518013 0.19828123 0.07323062 -0.0120681 0.04433832 0.1397367 0.00532313 0.059086144
-0.009898707 0.08810953 -0.059503045 0.04453229 0.048762143 0.002329271 0.16579492 0.13028273
0.05078723 0.05441718 0.11093039 0.056199763 0.0528667 0.05363246 0.12508455 0.065618515
0.043664187 -0.051995624 0.17487828 -0.029140811 -0.08227974 -0.013026291 -0.100640066 -0.0034143485
0.20069502 0.15343173 0.14330696 0.059062686 0.12566692 0.036387354 0.0496935 0.13056742
0.23740025 -0.0063162306 0.10489484 0.025982456 0.10068873 0.0026893467 0.08793173 -0.07561057
-0.103656106 0.008929761 -0.06322366 0.1740969 -0.0010624466 0.061441444 0.02994685 0.058621254
0.1970726 0.104862124 0.09435645 0.023631766 0.06848154 -0.027876217 0.08680386 0.10952811
0.100996174 0.14698656 0.014283016 -0.096128374 0.09556837 0.07985939 -0.03617145 0.003877404
0.020524688 0.13708913 0.07401394 -0.012857618 -0.09985166 -0.0847934 0.20002046 -0.025025064
0.070407115 -0.0069789058 -0.091658115 0.017390897 0.035807524 0.06202394 0.08570305 0.12560266
6.96381e-05 0.117983915 0.06744699 0.045889378 0.03313996 0.07686602 0.019185582 -0.12727883
0.09305373 0.13154955 0.083156265 0.1681902 0.055722084 0.065496385 0.07653867 0.013211707
-0.0074230493 0.09024216 -0.04357431 0.081848435 0.024584863 -0.053135622 -0.020926772 -0.072482914
0.20124729 0.086731486 0.07731317 0.079545625 0.20879893 0.14423405 0.15667087 -0.07012491
0.10781495 0.021167647 0.1865382 0.12593248 -0.02048962 -0.050413895 0.09605088 -0.10748556
-0.028949989 0.10032376 0.07168683 0.08463392 0.114980206 0.07847929 0.119337045 -0.016812908
0.113227956 -0.025076937 0.062659144 0.107162505 0.078244805 -0.07010232 0.048685484 0.07465336
0.0282508 -0.029360365 0.15436006 -0.047083195 -0.02892798 0.07752761 0.092697605 0.013305583
0.09037786 0.09730292 0.033000343 -0.062487137 0.18902722 0.08943431 0.05447879 0.07414615
0.09459985 -0.078605115 0.15634578 0.14969277 0.1251941 0.08154608 0.046385866 0.002249199
0.14060564 0.0020296054 -0.009931667 -0.05758594 0.06783609 -0.0010260267 0.20763357 -0.0473564
-0.031702347 -0.04817455 0.09740376 0.04401726 0.09269605 0.12913796 0.08983417 0.0073589347
-0.015170625 0.18541235 0.09407593 0.10729451 0.096900344 0.12655802 0.036483105 -0.0036898225
0.06490527 0.12486591 -0.020086588 0.08172512 0.146453 0.07312945 0.20816186 0.11715928
-0.11905195 0.123070985 0.06582276 0.14177528 -0.1013002 -0.09061846 0.06498912 -0.13201101
0.022170354 0.013269284 -0.049194332 0.10225882 0.017059978 0.01705092 0.11388689 -0.038233723
0.067846045 0.051598385 0.06880284 -0.07364936 0.029416148 0.02455911 0.03894266 0.06366067
-0.014455762 -0.0080529135 0.03617001 0.042332392 -0.06556335 0.040297437 0.087896965 0.03421036
0.08058144 -0.1062741 0.1568459 0.031870205 0.14374465 -0.032523897 -0.08657969 -0.09134044
-0.15432827 -0.018888371 -0.07062622 0.034150563 -0.0013745402 -0.07013163 -0.10778468 -0.06041361
0.107534766 -0.13800198 -0.08073172 0.04952032 -0.08955477 0.025104746 -0.056626856 0.017961945
00000000: 14be a93b 3c0a 4b3e eff9 953d 48b9 45bc
00000010: 199c 353d 2317 0f3e a76d ae3b 5004 723d
00000020: 302e 22bc c572 b43d 77b9 73bd 7e67 363d
00000030: d0ba 473d afa6 183b 25c6 293e d668 053e
00000040: 4506 503d 8de4 5e3d 792f e33d b931 663d
00000050: c18a 583d b6ad 5b3d 2a16 003e 0063 863d
00000060: 38d9 323d 5df9 54bd 4b13 333e b6b8 eebc
00000070: 4882 a8bd 396c 55bc 611c cebd 43c3 5fbb
00000080: ff82 4d3e 351d 1d3e 0fbf 123e b7eb 713d
00000090: d4ae 003e e80a 153d 698b 4b3d 77b3 053e
000000a0: 0d19 733e 62f8 cebb 1bd3 d63d 29d9 d43c
000000b0: e535 ce3d c03f 303b 8d15 b43d b7d9 9abd
000000c0: a749 d4bd 224e 123c 687b 81bd 7546 323e
000000d0: cb41 8bba 06aa 7b3d 1953 f53c d71c 703d
000000e0: 66cd 493e f4c1 d63d f43d c13d 6897 c13c
000000f0: 0d40 8c3d aa5c e4bc 39c6 b13d 4650 e03d
00000100: 15d7 ce3d a583 163e 5003 6a3c f4de c4bd
00000110: 59b9 c33d 528d a33d 8428 14bd 0b1c 7e3b
00000120: 6423 a83c 1861 0c3e 9f94 973d c2a8 52bc
00000130: 077f ccbd 29a8 adbd 2ad2 4c3e 5d01 cdbc
00000140: 9b31 903d 4eaf e4bb 40b7 bbbd 5b77 8e3c
00000150: e9aa 123d d10c 7e3d 1585 af3d fc9d 003e
00000160: ac0a 9238 8da1 f13d a621 8a3d 80f6 3b3d
00000170: c4bd 073d ef6b 9d3d 152b 9d3c 6255 02be
00000180: f492 be3d edb4 063e d54d aa3d 0d3a 2c3e
00000190: d73c 643d f822 863d 4ec0 9c3d ea75 583c
000001a0: 0d3d f3bb e2d0 b83d fa7a 32bd 27a0 a73d
000001b0: 3266 c93c bda4 59bd 9f6e abbc ec71 94bd
000001c0: c513 4e3e 47a0 b13d 5e56 9e3d d1e8 a23d
000001d0: 63cf 553e 17b2 133e 546e 203e a69d 8fbd
000001e0: 16ce dc3d c667 ad3c df03 3f3e 72f4 003e
000001f0: d9d9 a7bc cd7e 4ebd 53b6 c43d 6421 dcbd
00000200: 8728 edbc 8b76 cd3d 8bd0 923d 8c54 ad3d
00000210: be7a eb3d c0b9 a03d fb66 f43d 39bb 89bc
00000220: 0fe4 e73d 266e cdbc 7053 803d 0478 db3d
00000230: d03e a03d ce91 8fbd 6e6a 473d dce3 983d
00000240: 396e e73c 2685 f0bc 9010 1e3e 4fda 40bd
00000250: 5ffa ecbc ccc6 9e3d 3ed8 bd3d a9ff 593c
00000260: 0718 b93d c146 c73d 5e2b 073d 83f2 7fbd
00000270: 5a90 413e 5629 b73d 2725 5f3d f0d9 973d
00000280: 91bd c13d b8fb a0bd 1c19 203e 1049 193e
00000290: e232 003e a201 a73d 1bff 3d3d 4c67 133b
000002a0: edfa 0f3e 2103 053b 6eb8 22bc 3cdf 6bbd
000002b0: a6ed 8a3d be7b 86ba e59d 543e c9f8 41bd
000002c0: 52da 01bd ad52 45bd 9f7b c73d 714b 343d
000002d0: 6dd7 bd3d be3c 043e fafa b73d 3823 f13b
000002e0: 378e 78bc bcdc 3d3e e2aa c03d 39bd db3d
000002f0: b073 c63d 6d98 013e 4f6f 153d f3d0 71bb
00000300: 0eed 843d b3b9 ff3d a18c a4bc 805f a73d
00000310: c6f7 153e e5c4 953d 6228 553e 34f1 ef3d
00000320: 82d1 f3bd a40c fc3d 15ce 863d 8a2d 113e
00000330: 7b76 cfbd 2c96 b9bd 0419 853d e52d 07be
00000340: 9a9e b53c 6967 593c ff7f 49bd 126d d13d
00000350: 5ec1 8b3c 5fae 8b3c 883d e93d f79a 1cbd
00000360: def2 8a3d d458 533d 81e8 8c3d 7ad5 96bd
00000370: 22fa f03c 3030 c93c 5782 1f3d 8660 823d
00000380: dcd7 6cbc 5ef0 03bc 0127 143d bb64 2d3d
00000390: 1446 86bd ed0e 253d 5303 b43d 2a20 0c3d
000003a0: e207 a53d 3ca6 d9bd 369c 203e 558a 023d
000003b0: cc31 133e c737 05bd b150 b1bd b210 bbbd
000003c0: 3b08 1ebe c9bb 9abc 7ba4 90bd 76e1 0b3d
000003d0: ea29 b4ba 2ca1 8fbd 37be dcbd 4374 77bd
000003e0: 303b dc3d 6450 0dbe ac56 a5bd d2d5 4a3d
000003f0: 7e68 b7bd 78a8 cd3c 90f1 67bd ee24 933c

h2m.weight f4 [2, 100]
-0.010809528 -0.010879232 -0.0344222 0.08420867 -0.07120196 -0.09670478 -0.13508065 -0.03499954
-0.089806475 0.09848937 0.03590086 0.016924042 0.012856276 0.06640665 -0.0012190769 -0.026023664
0.016270835 0.11285618 -0.023967061 0.012208908 -0.116100855 0.03129954 0.026515227 0.025143009
0.024543053 0.045527544 -0.047130242 0.081505515 0.1619457 0.06708644 -0.18807204 -0.00619732
-0.043368418 0.021850746 0.09281798 -0.16550271 -0.06437208 0.06385028 -0.024540864 0.02897613
0.04322253 0.08436607 -0.1313 -0.031163732 -0.046750523 0.0030976986 -0.017809957 -0.07341517
0.042350788 0.039485116 -0.056415766 0.0419596 -0.073535174 -0.064000174 0.0040805317 -0.050448034
-0.06096418 -0.041374907 0.07555957 -0.1311189 -0.029183703 -0.018554451 -0.027339889 0.030246854
-0.0239531 0.0620764 0.058606252 0.09463395 0.03508224 -0.047129042 0.014950658 0.017852563
0.062186994 0.10444373 0.05919316 0.025873648 -0.106818296 -0.1040424 0.037638266 0.002671906
-0.056909177 0.12884805 -0.003338419 -0.042561498 -0.003826057 0.023103373 -0.018251494 0.12037875
0.05193339 0.119737625 -0.055737227 -0.11864143 -0.04372772 -0.06247225 0.033798687 0.009158596
-0.015869426 0.089861654 0.021000747 -0.027180849 -0.10073588 0.078219965 -0.17764005 0.045633346
-0.09313832 0.020519009 0.15755497 -0.12640178 -0.059516508 -0.057397112 -0.18555544 0.09818876
0.094470166 0.03786269 -0.05836367 -0.08262774 0.108959004 0.033753164 0.054776073 0.023336887
0.008771436 0.025785113 -0.015222665 0.14268903 -0.09549127 0.024362845 -0.0632312 -0.05737465
0.10149537 0.030040737 0.13933131 -0.012644583 0.032285333 -0.017152615 -0.018131446 -0.07757537
0.0555963 0.086213164 -0.17516114 -0.07146747 -0.041305345 -0.08873529 0.17203018 0.09870628
0.06468521 -0.119638905 -0.028793084 0.029986797 0.1117759 -0.019599717 -0.14475809 -0.0014199256
0.021963738 0.0072415755 0.037282933 -0.05382584 -0.05804052 -0.004287076 0.017898584 -0.07149677
-0.0005081181 -0.12796408 0.0679722 0.009267348 0.026739826 0.0018432166 0.06723486 -0.051935334
-0.062299136 0.01891684 -0.052606896 -0.063824974 0.076123714 0.13430545 -0.12421387 0.018256387
-0.06084783 0.014440119 -0.07054004 0.081089824 -0.021203397 0.03895561 -0.18000045 -0.01771574
0.0486183 0.013848984 0.07587893 -0.028061057 -0.009300861 -0.032564186 -0.015755935 0.05258583
-0.1220166 -0.032453388 -0.066371866 0.009644439 -0.0654147 0.03974241 -0.056783464 -0.097876586
00000000: 721a 31bc ce3e 32bc 4bfe 0cbd 9875 ac3d
00000010: 55d2 91bd 280d c6bd 9552 0abe ad5b 0fbd
00000020: 75ec b7bd cbb4 c93d c80c 133d 4aa4 8a3c
00000030: 21a3 523c 3600 883d 6fc9 9fba 942f d5bc
00000040: 6a4a 853c 2421 e73d 9256 c4bc df07 483c
00000050: 49c6 edbd f233 003d 7636 d93c b6f8 cd3c
00000060: 830e c93c 177b 3a3d a40b 41bd 5dec a63d
00000070: 18d5 253e 9e64 893d f595 40be e312 cbbb
00000080: 15a3 31bd 5600 b33c 5a17 be3d 8b79 29be
00000090: 82d5 83bd f0c3 823d ec09 c9bc 595f ed3c
000000a0: 1c0a 313d 1ec8 ac3d 8273 06be 154b ffbc
000000b0: 7a7d 3fbd c202 4b3b 30e6 91bc b15a 96bd
000000c0: 0578 2d3d 25bb 213d 3814 67bd d4dd 2b3d
000000d0: 9c99 96bd 8612 83bd fbb5 853b 99a2 4ebd
000000e0: 93b5 79bd bc78 29bd fabe 9a3d 0844 06be
000000f0: a912 efbc 81ff 97bc e7f7 dfbc 40c8 f73c
00000100: 4b39 c4bc d343 7e3d 1c0d 703d 72cf c13d
00000110: 65b2 0f3d 620a 41bd 9bf3 743c 8a3f 923c
00000120: cab7 7e3d 98e6 d53d 8774 723d f9f4 d33c
00000130: 8dc3 dabd 2f14 d5bd 952a 1a3d 251b 2f3b
00000140: 9919 69bd bef0 033e 60c9 5abb f754 2ebd
00000150: 96be 7abb 4943 bd3c 2884 95bc 2289 f63d
00000160: 1bb8 543d 0039 f53d b84c 64bd 47fa f2bd
00000170: d61b 33bd e7e2 7fbd 7e70 0a3d f00d 163c
00000180: 9900 82bc 6309 b83d c209 ac3c 5faa debc
00000190: 9d4e cebd ca31 a03d 46e7 35be 08ea 3a3d
000001a0: 4ebf bebd 7b17 a83c 1756 213e 786f 01be
000001b0: 95c7 73bd 3c19 6bbd 3f02 3ebe 3017 c93d
000001c0: 9379 c13d e815 1b3d be0e 6fbd bc38 a9bd
000001d0: e625 df3d c240 0a3d e05c 603d 002d bf3c
000001e0: 12b6 0f3c 4d3b d33c 7c68 79bc 131d 123e
000001f0: ed90 c3bd 9794 c73c 5c7f 81bd ae01 6bbd
00000200: cedc cf3d fe17 f63c deac 0e3e 3a2b 4fbc
00000210: a03d 043d a483 8cbc 6688 94bc d6df 9ebd
00000220: f2b8 633d 8790 b03d 715d 33be 895d 92bd
00000230: cb2f 29bd d9ba b5bd ae28 303e 8526 ca3d
00000240: ae79 843d 3e05 f5bd 79df ebbc dfa6 f53c
00000250: c3ea e43d 968f a0bc 773b 14be cc1c baba
00000260: 4ced b33c bd4a ed3b fdb5 183d 7c78 5cbd
00000270: e5bb 6dbd 9a7a 8cbb 0da0 923c e66c 92bd
00000280: 3a33 05ba 0409 03be 0235 8b3d 13d6 173c
00000290: 7b0d db3c 1698 f13a 6eb2 893d 25ba 54bd
000002a0: 612d 7fbd 7df7 9a3c 547a 57bd abb6 82bd
000002b0: c0e6 9b3d 5e87 093e d763 febd 6b8e 953c
000002c0: 933b 79bd 4096 6c3c 4c77 90bd 6c12 a63d
000002d0: bfb2 adbc eb8f 1f3d 0a52 38be 9920 91bc
000002e0: fc23 473d d9e6 623c 6a66 9b3d 4de0 e5bc
000002f0: a362 18bc 0662 05bd 9712 81bc 3d64 573d
00000300: d7e3 f9bd d8ed 04bd f9ed 87bd b603 1e3c
00000310: 24f8 85bd f0c8 223d c795 68bd 8573 c8bd

h2m.bias f4 [2]
0.10912525 0.044334885
00000000: 0f7d df3d 7f98 353d

h2v.weight f4 [2, 100]
0.37819013 -0.31282273 -0.038981713 -0.41579592 0.20874774 0.2661912 0.400997 0.42000565
0.20180787 -0.41404375 -0.283678 -0.3439762 -0.37499386 0.4135237 -0.36757746 0.057144724
-0.3017995 -0.37681165 -0.40891415 -0.1024263 -0.25556803 -0.10231985 -0.42176357 -0.13657174
0.0063665654 -0.04874189 -0.39526668 -0.33756635 -0.20859785 -0.38961294 0.34822056 0.18304133
-0.4269204 0.39805475 -0.32519093 -0.023056338 -0.37175664 -0.36872235 0.004896839 0.3468322
0.4312372 0.1575028 0.36454272 -0.3820853 0.31355616 0.41310808 0.37399745 0.39806682
-0.30091247 0.38378242 0.27296183 -0.38288632 0.103417344 0.34778547 0.017113483 0.35270992
0.34016764 -0.38489768 -0.20701863 -0.5644588 0.23900497 0.021693852 0.39313018 0.41756678
0.36481464 -0.44307813 0.17459504 -0.39731193 -0.4197468 -0.38743615 0.3268374 0.32528546
-0.2770984 -0.23844062 0.3807071 -0.27476308 0.1895079 0.03654419 0.39400324 0.423356
-0.36212933 0.08977339 -0.191801 -0.22660737 0.4147539 -0.38765126 -0.33126047 -0.21451963
-0.35088015 0.14151041 0.40973514 0.44148114 0.14152473 -0.41790435 0.22942401 0.00823952
-0.27170315 -0.25272614 0.40439677 0.4064134 0.29241917 -0.3889383 0.097796105 -0.35770696
0.335002 0.34452587 0.23351447 0.3653066 0.31966957 -0.2748482 -0.017283821 -0.42842737
-0.40832153 0.29405785 -0.43684626 0.05584392 -0.43576795 -0.43757653 -0.32339302 -0.065596685
-0.306953 -0.18979004 -0.41238233 -0.12056907 0.2729543 -0.059965514 -0.30529895 -0.25607595
-0.2597382 -0.3215562 0.12980287 0.34766284 -0.3488485 0.28682545 -0.44167447 -0.32374117
-0.4308106 -0.32626617 0.17942236 0.27162987 0.33622307 0.3064668 0.2976504 -0.3546384
0.27424642 0.44401088 0.3631928 0.38037083 -0.22539553 0.32211053 0.24659331 -0.32123256
0.112808935 0.3245814 0.33991715 0.35317773 0.37000436 -0.39835408 -0.28730378 -0.5603199
0.18498205 0.21393825 0.42589846 0.40104988 0.43652463 -0.41507384 0.017482873 -0.26218808
-0.40809688 -0.42711017 0.345001 0.22487168 -0.27860972 -0.012335801 0.2830511 -0.19008498
0.21566018 0.2218494 0.36233032 0.42669904 -0.32463112 0.14490329 -0.056280617 0.021960054
0.40141457 -0.4297851 -0.40468478 -0.27648845 -0.42218056 0.15238334 0.44132707 0.32380027
0.21814796 -0.43907207 0.21437667 -0.14520223 -0.45384657 -0.1911747 0.41840142 0.25848573
00000000: 23a2 c13e 4d2a a0be 4aab 1fbd 34e3 d4be
00000010: f8c1 553e 374a 883e 7b4f cd3e fb0a d73e
00000020: b9a6 4e3e 8bfd d3be 3e3e 91be a61d b0be
00000030: 32ff bfbe 61b9 d33e 1d33 bcbe 9610 6a3d
00000040: 7785 9abe 75ed c0be 325d d1be e1c4 d1bd
00000050: d0d9 82be 128d d1bd 65f1 d7be 76d9 0bbe
00000060: 9f9e d03b 93a5 47bd 6560 cabe 7fd5 acbe
00000070: ad9a 55be 597b c7be f749 b23e 306f 3b3e
00000080: 5095 dabe d5cd cb3e 6d7f a6be a5e0 bcbc
00000090: e356 bebe 2dc9 bcbe aa75 a03b fd93 b13e
000000a0: 1fcb dc3e 6a48 213e 58a5 ba3e afa0 c3be
000000b0: 6f8a a03e e782 d33e 987c bf3e 6acf cb3e
000000c0: 3311 9abe 217f c43e a7c1 8b3e ad09 c4be
000000d0: 79cc d33d f010 b23e 9331 8c3c 6596 b43e
000000e0: 742a ae3e 4f11 c5be b1fc 53be 5f80 10bf
000000f0: b8bd 743e 4eb7 b13c 5c48 c93e 50cb d53e
00000100: fcc8 ba3e 23db e2be 0bc9 323e 786c cbbe
00000110: 0de9 d6be 085e c6be 3b57 a73e d18b a63e
00000120: d7df 8dbe c729 74be 0aec c23e bfad 8cbe
00000130: 5c0e 423e 5caf 153d cbba c93e 1ec2 d83e
00000140: 0469 b9be 1cdb b73d 7b67 44be c30b 68be
00000150: a05a d43e 3a7a c6be f99a a9be 09ab 5bbe
00000160: 90a6 b3be 1be8 103e cec8 d13e d109 e23e
00000170: dceb 103e 8ff7 d5be 21ee 6a3e 0dff 063c
00000180: ad1c 8bbe 5265 81be 180d cf3e 6b15 d03e
00000190: f7b7 953e ec22 c7be 5349 c83d 5e25 b7be
000001a0: 6285 ab3e b265 b03e 6b1e 6f3e 7709 bb3e
000001b0: bbab a33e e7b8 8cbe cd96 8dbc d55a dbbe
000001c0: 850f d1be c08e 963e 50aa dfbe 98bc 643d
000001d0: fa1c dfbe 080a e0be c593 a5be 8e57 86bd
000001e0: f228 9dbe 5258 42be c723 d3be ebec f6bd
000001f0: aac0 8b3e 669e 75bd 2550 9cbe 631c 83be
00000200: 68fc 84be 04a3 a4be 0beb 043e dd00 b23e
00000210: 459c b2be c9da 923e 2823 e2be 67c1 a5be
00000220: 3593 dcbe 5c0c a7be 7fba 373e 1213 8b3e
00000230: 6e25 ac3e 37e9 9c3e a265 983e 2a93 b5be
00000240: 076a 8c3e 6555 e33e 68f4 b93e f7bf c23e
00000250: 16ce 66be aceb a43e f582 7c3e 9878 a4be
00000260: 5f08 e73d 892f a63e 9f09 ae3e b6d3 b43e
00000270: 3671 bd3e 11f5 cbbe 7b19 93be 2071 0fbf
00000280: ef6b 3d3e a112 5b3e 5d0f da3e 6956 cd3e
00000290: 2880 df3e 8f84 d4be 3e38 8f3c 843d 86be
000002a0: 13f2 d0be 2fae dabe f9a3 b03e c344 663e
000002b0: efa5 8ebe 191c 4abc 13ec 903e a3a5 42be
000002c0: 06d6 5c3e 7d2c 633e 5c83 b93e 4c78 da3e
000002d0: 0d36 a6be 8761 143e 8186 66bd 92e5 b33c
000002e0: 3686 cd3e cb0c dcbe d832 cfbe e58f 8dbe
000002f0: 0d28 d8be 610a 1c3e 9ff5 e13e 26c9 a53e
00000300: 2e62 5f3e 0ece e0be 8f85 5b3e e5af 14be
00000310: 945e e8be 4dc3 43be b638 d63e 3e58 843e

h2v.bias f4 [2]
-0.44348446 -0.32423612
00000000: 6510 e3be 4702 a6be
